logs/rsl_rl/unitree_a1_flat/2025-03-20_01-53-22/exported/policy.onnx (onnx, 764693 bytes, 8 tensors)

actor.0.weight f4 [512, 48]
000000 2a b6 b1 3e 49 99 cb 3e f6 78 8f bd dd 01 05 3f
       0.34709293 0.39765385 -0.07005493 0.5195597
000010 22 54 f5 be cd f8 23 3d d7 fb 47 3e 6c 43 9b bc
       -0.4791575 0.040032197 0.19529663 -0.018953048
000020 64 33 32 3c 8e de a0 3d f3 71 95 3e 5d b1 23 3e
       0.01087651 0.07854949 0.291885 0.15985627
000030 0c 80 10 3f 04 36 28 3e f9 99 97 3c 1b fd ad be
       0.56445384 0.16426855 0.018506037 -0.33982167
000040 74 99 85 bb 71 b7 d0 3e 66 71 19 be f5 d2 76 be
       -0.004077131 0.40764955 -0.14984664 -0.24103911
000050 3b 0f 59 3d b0 b0 d5 3c e9 bd 2d 3d 1c fa 7c bc
       0.05299304 0.026085228 0.04241744 -0.01544049
000060 38 37 8c bd 8d 70 be 3d 9c ac bf 3e 41 89 82 3e
       -0.0684647 0.09298811 0.37436378 0.2549534
000070 2b e3 b1 3e 5a a3 7f 3e 60 6b ed 3d fb 18 37 3d
       0.34743628 0.24964657 0.11592746 0.044701558
000080 96 89 11 bd 61 24 44 3d 19 f1 cf bd 17 30 09 3d
       -0.035531603 0.047886256 -0.101534076 0.033493128
000090 c5 b2 7f 3d 93 b7 a3 3d bc c3 c2 3b 9b a5 37 3d
       0.062426347 0.079939984 0.0059437435 0.044835668
0000a0 12 f6 0b be a7 7c 07 3d aa da f6 3c 31 b5 1a bd
       -0.13668087 0.033077862 0.030133564 -0.037770454
0000b0 c5 8a 92 bd 24 97 fa bc a7 03 ba 3c 93 f0 95 3d
       -0.071553744 -0.030589648 0.02270682 0.073212765
0000c0 25 bc 9f 3d 3a 75 06 3d e5 1d e2 bd f3 b6 b5 be
       0.077995576 0.03282664 -0.11040858 -0.35491142
0000d0 55 01 bb be e4 53 06 3e 89 4e 79 3e af d0 f8 be
       -0.36524454 0.13117939 0.24346365 -0.48596713
0000e0 1f b1 c0 be 04 66 01 3d e3 6f e6 bb 1d ef 93 3d
       -0.37635133 0.03159143 -0.007032381 0.072233416
0000f0 db 91 34 3f 45 78 a2 3e 7b d7 dc 3e 2e 5a 14 be
       0.7053506 0.31732383 0.4313315 -0.14487526
000100 9c 90 0b be b9 d9 2d be 93 e0 65 3e 00 16 77 be
       -0.13629383 -0.16977586 0.2244895 -0.24129486
000110 eb df d2 be 1a 9c 5e bd 74 82 bd bc 24 21 18 be
       -0.4118646 -0.05434809 -0.023133494 -0.14856392
000120 48 1d 8a bd 6a 7f f0 3e 95 1f 87 be 14 88 74 be
       -0.06743866 0.4697221 -0.26391283 -0.23880035
000130 b2 c3 35 be 25 87 96 be 66 c4 c4 3d 9f 02 26 3d
       -0.17750433 -0.29399982 0.096077725 0.040529843
000140 76 4c 96 bd 55 68 a1 bd c3 84 90 bd 20 ee d3 bd
       -0.073388025 -0.07881228 -0.07056572 -0.10348153
000150 62 4c 25 bd c2 4f 34 bd 6b 22 71 3d b4 53 9a 3d
       -0.040356047 -0.044021375 0.058870714 0.07535496
000160 c8 bc 84 bc 91 82 75 3c e0 17 d2 3b 73 6a fd ba
       -0.0162033 0.014984743 0.0064115375 -0.0019334093
000170 02 16 39 3c 7f ba 15 3d ba 65 86 bc c7 c2 80 3d
       0.011296751 0.03655481 -0.016405929 0.06287151
000180 0d 25 94 be 39 75 8f bb 6a de af bd 28 2e a2 bd
       -0.28934518 -0.0043779877 -0.08587344 -0.0791896
000190 59 f0 1d bf 42 cb c6 3d 36 85 ae 3e 03 c8 60 3d
       -0.61694866 0.09706737 0.34086007 0.054878246
0001a0 8b 47 05 3e 02 5e e8 3c 72 8a df bd 49 c4 93 be
       0.13015573 0.028365139 -0.10915078 -0.2886069
0001b0 3c 28 bf 3d b3 e7 49 3e de b5 48 3e 40 47 0c 3d
       0.09333846 0.19717292 0.19600627 0.034247637
0001c0 d4 18 c9 3e c3 cd a1 3e 6b 57 20 be 67 e3 11 3e
       0.39276755 0.31602296 -0.15658347 0.14246903
0001d0 d4 8d 0c be 92 76 a0 3c d4 87 9b be 62 92 26 be
       -0.13725978 0.019587789 -0.30377066 -0.16266778
0001e0 20 b4 ab bc 21 25 06 3e 85 d3 4e 3e 45 f6 81 bc
       -0.020959914 0.13100101 0.20197876 -0.0158645
0001f0 ce 1e c2 bd 12 a2 29 3d 58 bb 83 bd 35 2b b8 3b
       -0.09478532 0.041414328 -0.06432217 0.005620385
000200 ba 0b ce bc f8 f6 97 3b 6c 5c da bc c8 6d 3f 3d
       -0.025152076 0.0046375953 -0.026655398 0.046735555
000210 f6 fb 8b 3d 63 b1 94 3d e3 95 b1 39 df f5 af 3d
       0.06835167 0.07260396 0.00033871745 0.08591818
000220 93 31 d1 3c 5a 88 81 3d 34 c4 ae bd 60 ff 79 bb
       0.025536334 0.06324835 -0.085335165 -0.00381466
000230 c2 11 47 be cd ed 4e bc e6 d9 a6 3c 77 d3 8d bd
       -0.19440368 -0.012629938 0.020367574 -0.06925099
000240 24 37 87 3e dd 7e 2d 3e ed 40 95 3e e2 49 28 3f
       0.26409256 0.16942926 0.29151097 0.65737736
000250 ec bd c8 3e d6 19 07 be 86 e4 fc be 89 41 bc 3d
       0.392074 -0.1319345 -0.493931 0.09192187
000260 f5 17 a5 be 62 f9 a2 be 12 ab ba bd bb 07 db be
       -0.3224484 -0.3183089 -0.0911466 -0.42779335
000270 81 46 9c bd 5b e4 99 be d2 b7 be bd 8f a1 3f be
       -0.07630635 -0.30057034 -0.09312405 -0.18713973
000280 a7 f9 95 3e 5d ec 23 be eb af ac bd 54 03 b3 3e
       0.29292032 -0.16008134 -0.08431991 0.34963477
000290 c3 3e 24 3e e1 e6 93 3e 40 f4 83 bd 5b c0 cd be
       0.16039567 0.28887084 -0.06443071 -0.40185818
0002a0 5a f1 2d bd 94 98 15 be 98 2f f0 3c 79 2c 20 bd
       -0.0424665 -0.14608985 0.02931957 -0.039104912
0002b0 00 e8 91 3e d1 ba ba bd b5 c8 b8 3d 6e ce af bc
       0.28497314 -0.09117664 0.09022657 -0.021460738
0002c0 70 4d 3f 3d 63 73 8e 3c 83 80 c2 bc 10 72 c6 3d
       0.04670471 0.017389005 -0.02374292 0.096897244
0002d0 cd e3 13 3c fb 74 2a bc 94 14 c3 bd 62 df 62 3c
       0.00902648 -0.010403867 -0.09525409 0.013847204
0002e0 cb 63 05 ba 65 c9 0b bc 46 89 f1 bd 59 36 5c 3e
       -0.00050884177 -0.008531903 -0.11793761 0.21505107
0002f0 60 a4 26 3d 03 ff 4e 39 85 9a 38 3d c5 be 12 bd
       0.040684104 0.0001974069 0.045069236 -0.035826463
000300 07 fb 58 bc d2 b8 74 bd 9b 37 08 be 5e 97 4d bd
       -0.013243443 -0.05974657 -0.13302462 -0.050193183
000310 7e 51 0d 3f 67 1a 80 3d 3c 43 fb bd 2d 14 16 3d
       0.5520247 0.06255036 -0.12268683 0.036640335
000320 0b 3a 8e bd fd 6d 42 be a7 0f 2f bd d5 9c b8 bc
       -0.069446646 -0.1898727 -0.042739537 -0.02253572
000330 3d 63 6a be f3 d8 84 3e 24 21 d3 bd 69 21 69 3d
       -0.22889419 0.2594677 -0.103090554 0.056916628
000340 33 ae fe be 18 57 88 3d 1f 33 3a 3e 37 07 ce bd
       -0.49742278 0.06657237 0.18183564 -0.1005997
000350 78 2d 83 bd 74 7b b6 3e 01 7c 82 bd e4 8f f3 3d
       -0.06405157 0.35641062 -0.06371308 0.11892679
000360 a8 20 95 3e 2c 33 11 3e b5 fc 5b bd 86 a0 7b 3e
       0.29126477 0.14179677 -0.053707797 0.24572954
000370 42 8a 28 bf c3 bb 78 be 25 a9 40 be 7b 7f b4 bd
       -0.65835965 -0.24290375 -0.18814524 -0.088133775
000380 9e 37 ee 3d 7d c0 27 bc 68 6d 3c 3d a2 d8 cf 3d
       0.11631702 -0.010238764 0.046002775 0.10148741
000390 1a e9 d3 3d d2 37 d8 3d e8 5b 60 be e4 82 94 bd
       0.10347195 0.10557522 -0.2191006 -0.07251528
0003a0 cc a9 98 be 9f 11 84 3c 78 d1 85 be c8 4c ea bc
       -0.29817045 0.016121684 -0.26136374 -0.028601065
0003b0 1f b0 e5 3c 0c c7 04 bd e6 c1 26 3d 76 05 bd bd
       0.028038083 -0.03241639 0.04071226 -0.09229557
0003c0 61 be 77 be ec 19 2a be 85 63 70 be 1b cf 88 be
       -0.24193718 -0.16611451 -0.23475464 -0.2672051
0003d0 f3 9e 2f 3e 20 d4 a2 be 96 2e 14 3e 7a 50 1f 3d
       0.17150478 -0.31802464 0.14470896 0.038895108
0003e0 03 fc 8b 3d 3d 81 9f 3e 2b 7e ae 3e 7a 7f 85 be
       0.06835177 0.31153288 0.34080634 -0.2607382
0003f0 92 27 a5 3e 0e b7 25 3e 00 0c 33 3e a1 cc 8b be
       0.32256752 0.16183111 0.17485046 -0.27304557

actor.0.bias f4 [512]
000000 b2 87 3f 3e dd 29 5e bd 24 af 12 3e 88 8c 15 3d
       0.18704107 -0.054239143 0.14324623 0.036510974
000010 38 f2 5b be 53 de f8 3c 35 86 3d be 3d da 73 3d
       -0.21479118 0.03037945 -0.18508227 0.0595343
000020 c6 16 f2 bd 7d ac 93 3e a0 8f ac 3d a7 fd 99 3c
       -0.1182075 0.28842536 0.08425832 0.018797709
000030 1f 97 1a be 16 00 e9 bd 34 52 25 3e dd 0d a5 3c
       -0.1509671 -0.113769695 0.16144639 0.020148212
000040 ce 97 a3 bd 73 d6 fb bd c4 15 07 3e 57 73 38 3e
       -0.07987939 -0.12296762 0.13191897 0.18012749
000050 80 15 2c 3e 8c 87 f9 3d 86 2b 0e bd 74 28 d5 3d
       0.16805077 0.12184057 -0.034709476 0.104081064
000060 72 dc 6f 3d d7 66 9c 3d 25 6c 84 3e de 97 df 3d
       0.058559842 0.07636803 0.25863758 0.10917638
000070 d1 b4 85 be fe e3 41 3d a5 d6 57 be 20 dc 30 3d
       -0.26114514 0.04733657 -0.21077974 0.043178678
000080 ad 94 d7 3d 8e 8d 66 bc f4 a9 24 3d 1e 57 4d be
       0.105264045 -0.014071835 0.040201142 -0.20052764
000090 79 c2 d3 3b 08 f3 b4 bd 63 45 6b be ed a3 63 3e
       0.006462392 -0.08835417 -0.22975688 0.22230501
0000a0 a8 61 05 be a9 21 d9 3c b7 42 8b be 39 b3 2f bd
       -0.13025534 0.026505308 -0.27199337 -0.04289553
0000b0 b9 03 4d 3e 5e c7 92 bd 4d 66 0b be c8 e9 ba 3c
       0.20020951 -0.071669325 -0.13613243 0.022816554
0000c0 71 3d b4 bd 0f 00 5f bd 5e 46 01 3e 26 cb 52 be
       -0.088007815 -0.054443415 0.12624499 -0.20585307
0000d0 66 bc 2c bd 2a 86 39 3e a4 a1 ce bd 81 26 54 ba
       -0.04217186 0.18117586 -0.10089424 -0.0008092896
0000e0 5b 68 b0 bd 0e b3 8c bd 41 52 95 bd 9c c0 92 bb
       -0.08613654 -0.068700895 -0.07291079 -0.0044785272
0000f0 c3 3f 39 3b 84 79 55 be cf e6 52 bd 59 79 c3 bd
       0.0028266765 -0.20847136 -0.051489647 -0.095446296
000100 04 ea 74 3e aa cd 4b 3e 8d c3 d4 bd d5 a0 23 be
       0.23917395 0.19902673 -0.10388861 -0.15979321
000110 52 24 e5 bd a0 d8 31 bd 33 86 14 3e 3b aa 54 3e
       -0.11188568 -0.04341948 0.14504318 0.20768063
000120 f0 7c ce 3d 32 fb 91 bd 6a 91 ed bc dd 31 b5 bd
       0.10082424 -0.0712799 -0.029000003 -0.08847401
000130 58 17 ed bd 3a 35 90 bd ae 15 bf bd 3a 06 50 3e
       -0.11576718 -0.07041402 -0.09330307 0.20314875
000140 6d c7 72 3b fb b5 85 3e 6e 7e 09 be 37 9e bb 3d
       0.0037045137 0.26115403 -0.13427135 0.091610365
000150 46 70 54 3e f4 3e 32 bd a3 15 9b 3d 38 8f 9c bd
       0.20745954 -0.043517068 0.07572486 -0.07644504
000160 16 b2 2b be 09 f3 12 3d 3c 4e 51 bd d5 d5 21 be
       -0.16767153 0.035876308 -0.0511 -0.15804227
000170 bb ad 7a be 8f 38 07 3c 2b a1 41 be ac d1 4d 3e
       -0.24480335 0.008253231 -0.18909137 0.20099515
000180 1f c6 c6 3d a3 0e 7e 3d 37 57 6c bd 23 01 0b bd
       0.09705757 0.062025677 -0.057700362 -0.03393663
000190 ae cd 75 bd c3 d5 28 bd 85 f8 08 3c 26 b6 68 be
       -0.060010605 -0.041219484 0.008360033 -0.22725734
0001a0 1f 6d 72 bd f2 f7 bf bd 12 4b 64 bd 45 cf 23 3e
       -0.059186097 -0.09373464 -0.055735655 0.15997036
0001b0 38 3c 1b bd 24 e4 55 3e 06 e0 22 bd 1b e2 06 be
       -0.037899226 0.2088781 -0.039764427 -0.1317219
0001c0 d4 9c b4 bd 44 e7 1e 3e dc 2e 1a be 51 fc d9 bd
       -0.08818975 0.15517908 -0.15056938 -0.10643829
0001d0 3d f2 2d 3e 1e c1 2b 3e 92 db b8 ba b0 f6 4f be
       0.16986938 0.16772887 -0.0014103523 -0.20308948
0001e0 2b a4 6b be f6 3a 14 3d 0f 81 97 bd e8 4b d5 bd
       -0.23011844 0.036189042 -0.07397663 -0.104148686
0001f0 10 6c 0e 3e d6 9f 9c bd 91 08 00 3e d9 2c 83 be
       0.1390841 -0.07647674 0.12503268 -0.25620154
000200 95 c8 33 3e 2c 9f 16 3e f7 7a 4f be 22 e6 2e 3e
       0.17556985 0.14709157 -0.20261751 0.17079976
000210 38 da 61 bd 76 24 98 bd a5 4e 65 be d2 d5 31 3d
       -0.05513975 -0.07428829 -0.22393282 0.043416806
000220 92 e4 06 3d 7f 65 45 3d 20 3b 18 be e1 d5 6a bd
       0.032932825 0.048192497 -0.14866304 -0.057332877
000230 dc 62 5a bd 0b fd fb bd 40 ca 52 be d5 6f d1 bd
       -0.053316936 -0.123041235 -0.20584965 -0.102264084
000240 a0 f3 34 3e a3 6d b3 bc 90 30 02 3e d7 12 a6 bd
       0.1767106 -0.021902865 0.12713838 -0.08109062
000250 6f 75 ee 3d 5b c1 0a 3e cb 08 4c 3b ee d9 11 3e
       0.116434924 0.13550322 0.003113317 0.1424329
000260 f6 a5 50 3e 1d 70 36 be 0b 82 4c bd 6e 2f 6e be
       0.20375809 -0.17816205 -0.049928706 -0.2326028
000270 dc 7f 03 3c 36 fe 2a be f3 19 5a 3e 70 04 bd 3d
       0.0080260895 -0.16698536 0.21298961 0.09229362
000280 5f bb fd bd 04 5c bd 3b b0 1a e4 bd f9 3b 88 bd
       -0.12389254 0.0057787914 -0.11137903 -0.06652064
000290 15 bc 2b 3e 4b 9f b8 bc cb 6b 73 3e 03 56 58 be
       0.16770966 -0.022536894 0.23771589 -0.21126561
0002a0 d2 34 25 bd cb 7e 75 3d 70 67 98 3d d6 e2 32 be
       -0.040333577 0.059935372 0.07441604 -0.17469344
0002b0 f9 44 c4 3d 56 85 be bd 9a 86 25 be ae 68 d9 bb
       0.09583468 -0.093027756 -0.16164628 -0.0066347932
0002c0 63 91 14 bc 45 b9 1e bc 42 6c 30 bd c4 63 25 3e
       -0.009067866 -0.009687726 -0.043071993 0.16151339
0002d0 6e 19 cb 3c e3 91 03 be 8d 11 21 be 54 ca 01 3e
       0.0247924 -0.1284862 -0.15729351 0.12674838
0002e0 ef 35 bb ba ba 8d 02 3e d9 19 60 3e 6c 7a 0e 3e
       -0.0014283041 0.12749377 0.2188486 0.13913888
0002f0 69 f8 3d 3e 5d e6 8f be 18 c5 e1 bd d8 8c 06 be
       0.18551792 -0.2810544 -0.11023921 -0.13139665
000300 89 87 af bd c6 09 14 be 8e e5 6e 3d 66 bd 6d be
       -0.08570773 -0.14456853 0.05832439 -0.23216781
000310 22 c9 43 3a 7f 3d 94 3d c8 da 55 be 62 da f7 3d
       0.0007468631 0.07238292 -0.2088424 0.121022
000320 18 65 f6 3d 5c cf ee bd 6a f8 52 3e 6c 88 74 3d
       0.12031001 -0.116606444 0.20602575 0.059700415
000330 0d d2 94 bd 7d 31 70 3e 72 47 f9 bd 3b 4c 68 3d
       -0.072666265 0.23456378 -0.1217183 0.056713324
000340 f0 6b d5 bd 0b 79 31 3e 40 11 ec 3d bf 10 9d bd
       -0.10420978 0.1733133 0.11526728 -0.0766921
000350 9e 06 7e 3e ca f9 85 be bf 54 cd 3d 83 24 d9 bd
       0.24807212 -0.26167136 0.1002593 -0.10602667
000360 01 49 26 be 68 19 07 be c2 0f 9a bd 61 53 2c bb
       -0.16238786 -0.13193285 -0.07522537 -0.0026294815
000370 57 29 62 3d ee bd d2 bd 5d 77 25 3e 94 d5 24 3e
       0.055215206 -0.102901325 0.16158815 0.16097099
000380 01 60 6b 3d 93 4d e1 3d 82 1d b4 3d e3 9b aa 3b
       0.057464603 0.11001124 0.08794691 0.0052065714
000390 0d 89 05 be d3 d2 f9 3c c2 a7 26 be 48 24 0c 3e
       -0.13040562 0.030496037 -0.16274932 0.13685715
0003a0 42 41 f5 bd 0b fc 37 3e 6a 76 b7 3d 91 61 48 be
       -0.119753376 0.1796724 0.089581326 -0.19568469
0003b0 aa 1e 0c bd 2c 46 2f 3e b9 cd 69 3e 7e 03 9d bc
       -0.03420893 0.17116612 0.22832383 -0.019166704
0003c0 20 f2 50 3c d1 12 89 bd 08 cd ae bc b6 29 1b bd
       0.01275304 -0.06693042 -0.021338 -0.037881576
0003d0 3e d1 83 3d 56 d7 de 3c 4c 7c 3b 3d 0a f4 2c 3e
       0.06436394 0.02720229 0.045772836 0.16889969
0003e0 df ce ad 3d c3 24 ea bd b3 c4 3c 3e 9f 34 01 3e
       0.08486723 -0.11432793 0.1843441 0.1261773
0003f0 7a 93 27 3e e3 d8 1e be 81 69 93 3d 56 2f dc 3d
       0.16364852 -0.15512423 0.07197858 0.10751216

actor.2.weight f4 [256, 512]
000000 23 f1 28 bd 66 d8 62 3d 20 35 33 bd b1 37 78 bd
       -0.04124559 0.055382155 -0.043751836 -0.060599986
000010 46 7d 6b 3d 59 04 e1 3d 1e ea a1 3d 29 14 83 3c
       0.057492517 0.109871574 0.079059824 0.016000824
000020 28 71 8d bc 3c f0 b1 bc 93 73 f7 bc e9 2f cd 3c
       -0.017265871 -0.021720998 -0.030206477 0.02504726
000030 cf 96 56 3d 0b 99 33 bc 82 82 16 be 76 32 5f 3c
       0.052389916 -0.010961781 -0.14698222 0.013622871
000040 05 56 ee 3d 9d 7d d6 3c a0 f1 1f 3e e4 f6 a1 3d
       0.11637501 0.026182944 0.15619516 0.07908419
000050 cf 7f 5c 3d 6c fe 04 bc 50 3f a1 bc 72 56 48 bd
       0.053832825 -0.0081172995 -0.01968351 -0.048910566
000060 8b 15 ee 3d 90 91 a8 3d 08 5b e1 bc b0 1d 01 3e
       0.11625203 0.08230889 -0.027509227 0.12608981
000070 28 e4 a7 3c 92 3d bf bd c4 65 13 3d 7d 1a 64 3d
       0.020494536 -0.093379155 0.035985723 0.055689324
000080 e9 ec e7 bd 26 68 05 bd e7 14 71 bb 23 8f d7 3c
       -0.11324484 -0.032570027 -0.003678614 0.02631337
000090 71 e7 a8 bc eb 1e f9 3d 27 ab f7 3d fd 0e 3e 3c
       -0.020618172 0.121641 0.120931916 0.011600253
0000a0 ff 61 ae 3c 4b 1b 5f bd 30 d5 0c 3e 0e 02 97 3c
       0.021286963 -0.054469388 0.137532 0.018433597
0000b0 18 88 55 3b d3 97 19 3e 3e 32 bc 3d 97 01 e2 bd
       0.003258234 0.14999323 0.091892704 -0.110354595
0000c0 96 8c 26 3d d9 dd 36 3d b5 f3 bb 3d 21 7c 63 bb
       0.040661417 0.044645164 0.09177343 -0.0034711438
0000d0 6b 99 ab 3d af b3 d0 bc a7 12 e1 3d 4e 4d f7 bb
       0.083788715 -0.025476305 0.10989886 -0.0075470572
0000e0 9d 1a 43 bc 8e ab 65 be c7 94 2b bc 4c 8a 83 3c
       -0.011908201 -0.22428724 -0.010472483 0.016057156
0000f0 2d 74 2f be 6d 88 5f 3d 89 44 cd bd 35 3e 27 3d
       -0.17134161 0.054573465 -0.10022838 0.04083081
000100 3b 2e c1 3c 3f c4 93 3d 1b 84 a6 bd ad e4 98 3d
       0.023581615 0.07215165 -0.08130666 0.074654914
000110 7e 74 ab bb 9d 5f 37 3d 9d cd d9 bc 95 c8 4b 3c
       -0.005232393 0.04476892 -0.026587302 0.012437959
000120 05 0b 1c 3e 43 f9 51 bc b7 e3 66 37 ef 6c cc 3d
       0.15238579 -0.012815776 1.3762087e-05 0.09981715
000130 c4 e9 ad 3d 6c af 28 be 2f f7 96 3c 01 5a 34 3d
       0.08491853 -0.16473168 0.018428413 0.044031147
000140 da 16 9f bc c0 1f 06 be fc 80 69 3d 6a d3 35 bd
       -0.019420076 -0.13098049 0.057007775 -0.044391073
000150 29 41 0a 3d 6c db 4f be 15 8a 07 3d ba 25 e7 3d
       0.033753548 -0.20298547 0.03309067 0.11286493
000160 86 38 07 3e 5a a4 b4 3d 90 ef c3 bc f4 71 8c bd
       0.13205156 0.0882041 -0.023917943 -0.06857672
000170 7c 0d e4 3c 46 4e f9 bc 3a 0b 73 3d 60 88 aa bd
       0.027838461 -0.030432831 0.05933688 -0.08326793
000180 23 b2 9c 3d b4 5d 85 bd ca 6b 99 3d 35 5d 16 3c
       0.076511644 -0.06512013 0.07491262 0.009177496
000190 01 3d 77 3d 3e e1 a8 bd 8a 54 5f 3d c7 58 25 3d
       0.060360912 -0.082460865 0.054523982 0.040367868
0001a0 02 bb 21 3d 1c dc 16 bd f6 42 04 3c 11 70 f2 bc
       0.039484985 -0.036831006 0.008072605 -0.029594453
0001b0 cc 2c 22 be ea f0 ed 3c 38 75 00 3d bc a2 cf 3d
       -0.15837401 0.02904554 0.03136179 0.10138461
0001c0 ba 39 a8 bd c4 3c 82 3c 34 da f4 3d 63 e3 45 3e
       -0.082141355 0.015898116 0.119556814 0.19325022
0001d0 a1 ef 9d 3d a5 75 12 3d 26 e3 36 bd 30 65 bf 3d
       0.07711721 0.035756726 -0.04465022 0.09345472
0001e0 86 e3 62 3d 00 a4 99 bd 7a 9b 0f 3d 35 7a 83 bc
       0.055392765 -0.07501984 0.035060383 -0.016049484
0001f0 22 4f 82 bc 55 de c1 3d 31 20 ee 3d d7 75 0f bd
       -0.015906874 0.094662346 0.11627234 -0.03502449
000200 22 db 58 3c a7 42 93 3d 71 70 08 3e 7f b2 38 3d
       0.013235839 0.07190447 0.13324143 0.045092102
000210 44 71 c9 3c 64 14 af 3c 68 20 0e bd df 83 e2 bc
       0.024590142 0.021372028 -0.034698874 -0.027650772
000220 f6 04 df 3c 52 65 72 bd 5f 74 b1 3d 4e a6 99 bb
       0.027224045 -0.059178658 0.08664774 -0.0046890145
000230 22 37 02 3d 66 94 be 3d c6 a8 08 3d 64 c4 fc 3d
       0.03179086 0.093056485 0.03336408 0.12342146
000240 e1 c0 02 3e 55 b5 98 ba b7 4c 7f 3d 2f fa 4b bd
       0.1276889 -0.0011650721 0.06232902 -0.04979914
000250 1e 59 42 3c 88 b0 1d 3c 24 b1 08 be d9 7a bd 39
       0.0118620675 0.009624608 -0.13348824 0.00036140418
000260 f1 c2 e6 bc 29 52 1e 3d 85 6b 25 3c 3b 33 12 3d
       -0.028169127 0.038652573 0.010096435 0.03569339
000270 2f 1f ed bd 71 a1 0e 3e de c2 f9 3c 65 c7 5d bd
       -0.115782134 0.13928773 0.030488428 -0.054145236
000280 97 af ec bc 48 6a 28 bd c3 ae 1a 3e 04 13 e7 bd
       -0.028892322 -0.041116983 0.15105729 -0.11282924
000290 f3 d3 fc bc 59 85 e9 3d c6 fe b8 3d 3f de 0b be
       -0.030862784 0.11402387 0.09032969 -0.13658999
0002a0 8c 68 43 bd de 6f 17 3c 34 48 77 3d 8d 84 e4 3d
       -0.047707126 0.00924298 0.060371593 0.111580946
0002b0 c6 6b 33 bd f9 74 07 bc 7b d9 3e 3e a1 56 ba 3d
       -0.043803953 -0.008267635 0.1863765 0.090985544
0002c0 97 e7 fa 3a 0c 10 67 bc 0b 52 f0 bb 08 0e c8 bd
       0.0019142505 -0.014102947 -0.007333999 -0.09768301
0002d0 4c a0 88 bd 7b 66 61 bd f9 14 7d bd 68 5c 8e 3d
       -0.06671199 -0.055029374 -0.06178758 0.06951219
0002e0 c8 4c 87 3c 6d 76 04 bd 92 9f 84 3c c5 24 62 3d
       0.016516104 -0.032339502 0.01618937 0.055210847
0002f0 ae f3 0a 3d f0 99 d7 3c be 0e f8 bb 83 3d 34 3c
       0.033923797 0.02631852 -0.007570117 0.011000994
000300 db 4c d0 bc 65 4f 16 3e bf 47 4f be 9f 08 0a 3e
       -0.025427273 0.14678724 -0.20242213 0.13479851
000310 ea 5f 85 3d 22 4a 57 bc 6d d2 44 3a c6 c0 66 ba
       0.06512435 -0.013140233 0.00075081625 -0.0008802529
000320 e6 4e 02 bd dc 46 08 3d 7e f5 80 bc dd 69 c9 bd
       -0.031813525 0.0332707 -0.01574206 -0.09834645
000330 e1 49 6b bc 45 dd 35 bd d4 97 bc 3d f6 1b c0 bd
       -0.014360876 -0.044400472 0.092086464 -0.09380333
000340 cf 78 46 3d c7 52 6e bd 04 46 88 3d 8e 95 d7 bd
       0.048455056 -0.05818441 0.066539794 -0.10526572
000350 7b 6e 97 bd ec f7 4b bc 07 2e 1d be 72 75 0a bb
       -0.07394119 -0.012449246 -0.1534959 -0.0021127132
000360 49 7f 21 3e fc f7 00 bd f9 21 df bc ef 0c 8f 3b
       0.15771212 -0.031486496 -0.02723788 0.0043655555
000370 35 37 bb 3c 43 1f 77 bd 78 43 4b bd f7 5b da 3d
       0.022853473 -0.060332548 -0.04962489 0.10662072
000380 01 08 82 3d 62 92 d1 3d b6 4b 8c 3d 96 96 95 bd
       0.06349183 0.102329984 0.06850378 -0.073041126
000390 53 dd 86 3d 22 01 29 bb fa c5 c0 bd a7 41 9c 3d
       0.06585183 -0.0025788029 -0.09412761 0.0762971
0003a0 68 45 11 bc e9 0a 70 3c 37 0f 73 3d 24 58 b6 ba
       -0.008866645 0.014651039 0.059340682 -0.0013911766
0003b0 03 7e 29 3c 18 a6 a8 3d 55 8d 1f 3c aa a0 fa 3c
       0.010344985 0.08234805 0.009738286 0.030594189
0003c0 12 46 bc 3d 69 a3 57 bb fd 59 70 3d c3 44 9d bd
       0.09193052 -0.0032903797 0.05867957 -0.07679131
0003d0 8c 2e 06 3e 5b 06 8a bc e8 dd 3a 3e 69 a2 9f 3d
       0.13103694 -0.016848734 0.18248713 0.07794649
0003e0 85 97 75 3d 7a 0e 90 3d 1f 31 08 3e 1b b7 ad 3d
       0.059958953 0.07034011 0.13299988 0.0848219
0003f0 f3 06 4b 3d f1 cf 9c bd db 86 30 bd 79 af 9f 3c
       0.049567174 -0.07656849 -0.04309736 0.019492852

actor.2.bias f4 [256]
000000 ce c8 b6 3c 53 69 d6 3c ed 30 09 bd 55 2f d2 bd
       0.022312548 0.02617327 -0.033493925 -0.10262934
000010 41 91 32 be fb c1 74 3c a0 75 a1 be 77 c1 e5 bc
       -0.17438222 0.014938827 -0.31535053 -0.028046353
000020 a7 ad 2a be 9a f1 2a be a8 1a c2 bd a9 4e 52 bd
       -0.16667806 -0.16693726 -0.094777405 -0.051344547
000030 e1 d7 18 be aa 17 4a 3d 79 cb 8e bd 12 eb a6 be
       -0.14926101 0.049338974 -0.06972403 -0.3260122
000040 0e c2 d2 bd bb 6d 89 bc e9 ac 38 3c 6f a0 4c be
       -0.10290919 -0.016775956 0.011271694 -0.19983076
000050 a3 8a e6 bd e9 13 9c bd 97 0a 98 bd 21 ee ad bc
       -0.112569116 -0.07620985 -0.07423895 -0.021231713
000060 00 df 43 bd d6 9e ea bd 5c 8b 58 bd 90 39 17 be
       -0.04782009 -0.11456077 -0.05286728 -0.14768052
000070 a9 67 07 be 39 1c d7 bd 78 04 96 3c 72 30 bd bd
       -0.13223137 -0.1050343 0.018312678 -0.09237756
000080 07 11 6f be 6e 5a 14 be be 8f 46 bd 22 a4 6b bd
       -0.23346339 -0.14487621 -0.048476927 -0.057529576
000090 42 25 f5 bb 45 87 c6 bc 8e 13 22 3c 3e 70 a2 3b
       -0.007481248 -0.024234423 0.0098923575 0.004957228
0000a0 e1 b3 65 bc e1 b7 82 bd c7 01 1b 3d ec fa f3 bc
       -0.014019937 -0.06382728 0.037843492 -0.029782735
0000b0 08 2b 53 3c 5b 87 c4 bc 86 c4 2f bd 2b ee 15 be
       0.012888677 -0.023990324 -0.04291203 -0.14641635
0000c0 33 0c 3e be 72 3d 28 be 55 4b fc bd dd 4f fa 3d
       -0.18559341 -0.1642969 -0.12319056 0.12222264
0000d0 46 99 d4 bc 4d a0 0b be 93 6c bd bd e0 4d 69 bb
       -0.025951993 -0.13635369 -0.092492245 -0.0035599396
0000e0 15 1b 0a be 17 5f 8d 3d 08 11 8a bd ba 70 51 bd
       -0.13486893 0.069029026 -0.0674153 -0.051132895
0000f0 33 26 8c bd 11 ee 02 be 6c 6f 9c bd 33 d5 2c 3c
       -0.068432234 -0.12786128 -0.076384395 0.0105488775
000100 d2 c6 04 3d 71 3d aa bd 1e 93 db bd 4b b6 17 be
       0.032416172 -0.083125 -0.1072142 -0.14815633
000110 32 68 6c bd 44 ff f9 3c 38 2f 8e bd 94 7d 93 3c
       -0.057716556 0.030517228 -0.069426 0.018004216
000120 14 ac b8 bb bc c2 12 be 72 8e 69 be c0 8e be 3c
       -0.0056357477 -0.14332098 -0.22808245 0.023261428
000130 cf 1e 13 be 1b cb 1a be b3 f4 47 be 6d 0f a9 3d
       -0.14367221 -0.15116541 -0.19526939 0.08254895
000140 4a 5f 02 be 63 04 18 bd 6f a0 d9 bd b8 74 27 bc
       -0.12731662 -0.03711356 -0.106263034 -0.010220699
000150 bb e3 1c bd eb 4b cb bd b9 ab 25 bc 66 fd 82 bd
       -0.03830312 -0.099265896 -0.010111743 -0.06395988
000160 6c d5 a7 bd dd 04 76 bc 90 a3 28 be 25 32 d3 bc
       -0.08195004 -0.015015808 -0.16468644 -0.025780747
000170 ff ca d0 bd 68 9d a9 3c f0 d6 d7 bc 1f 95 ac 3d
       -0.101949684 0.02070494 -0.026347607 0.0842688
000180 a8 2f 6f be a0 80 ab 3d e2 8e eb bd 99 70 1c bd
       -0.23358023 0.08374143 -0.11501862 -0.03819332
000190 b0 10 f5 bd 61 7c b2 3d a8 87 2c 3b 4a ff 38 bd
       -0.119660735 0.0871513 0.0026325975 -0.045165338
0001a0 0f a6 05 3d fc 47 11 be bf dd 28 3d 9f b1 1d be
       0.03262907 -0.14187616 0.0412271 -0.15399788
0001b0 60 a0 6e 3c da 2a 8e bb 8b de 4e bd 41 1d f1 bd
       0.014564604 -0.0043386044 -0.050505202 -0.11773158
0001c0 d2 0c 03 be c9 4e e9 b9 92 44 18 bc 96 e6 8d 3c
       -0.1279786 -0.00044499923 -0.009293692 0.017321866
0001d0 a0 44 fe bc 15 5a ad 3d 03 39 93 bd e8 3e 8a be
       -0.031038582 0.084644474 -0.071886085 -0.2700112
0001e0 35 ab 20 be ca 40 84 bd ca 8e 4b bd 31 8c 4d bc
       -0.1569031 -0.0645767 -0.04969672 -0.012545631
0001f0 64 00 19 3d 71 ba 48 be 80 14 66 bd 70 e3 92 be
       0.03735389 -0.19602372 -0.056171894 -0.28689146
000200 92 05 7d bd c1 2a f4 3d 95 61 8f bd 57 80 9b 3d
       -0.06177289 0.11922217 -0.07001034 0.07592838
000210 fe 95 13 bd 41 0d 2d be 33 b0 89 bd 31 c6 48 be
       -0.036031716 -0.16899587 -0.067230605 -0.19606854
000220 07 ee 64 3b 25 b2 85 3b 5a 3c 5c 3c 14 e4 cf bd
       0.0034931914 0.0040800744 0.013442123 -0.10150924
000230 4a d0 23 be e5 ff 9e bd d1 31 8b bd 45 52 62 3d
       -0.15997425 -0.07763652 -0.06796611 0.05525424
000240 5c 68 88 bd 84 e4 24 bc 5c cf 95 bd a3 a0 3b 3d
       -0.0666053 -0.010064248 -0.07314941 0.045807492
000250 a0 87 ae be 4a 9c f6 bd e5 95 d7 bc 75 51 fe bd
       -0.3408785 -0.120415285 -0.026316592 -0.124178804
000260 d5 95 bb bd 83 d3 c7 bd 30 a3 00 be 6a 76 9e bd
       -0.091594376 -0.097571395 -0.12562251 -0.077374294
000270 66 dd 54 be 3b bd 6d bd ec 91 04 be 15 bb 28 be
       -0.20787582 -0.058041792 -0.1294629 -0.16477616
000280 ff 6e 9c bd 79 87 c3 bd 4b 7b d2 bd f9 95 1d be
       -0.07638358 -0.09547324 -0.102774225 -0.15389241
000290 6e 1b 16 bd a8 ed 32 be 73 f8 d1 3d 37 d5 e6 bc
       -0.036647253 -0.17473471 0.10252466 -0.02817784
0002a0 bf 1d 86 bd 4c b6 ae bd 82 85 bb 3b 46 58 bb bd
       -0.06548642 -0.08530864 0.0057227025 -0.09147696
0002b0 55 12 46 bd ce f7 f2 bd cf 85 7d be 8a 03 0d 3d
       -0.048357327 -0.11863671 -0.24758075 0.034427203
0002c0 01 07 e1 bd dd e0 a2 3c 8e c4 ac bc 42 55 0a be
       -0.10987664 0.019882614 -0.021089818 -0.13509086
0002d0 6c f2 0d 3d 40 05 0f be df 1a 2f bd de f4 08 3d
       0.03465502 -0.13966846 -0.042750236 0.03343665
0002e0 cc e2 d6 bd 55 a3 c7 bd 0d ac fa b9 06 97 15 be
       -0.10492477 -0.0974795 -0.00047811904 -0.14608392
0002f0 89 11 1d be 21 8e 20 be 74 8c 1a be 2a ff af bd
       -0.1533872 -0.15679218 -0.15092641 -0.085935906
000300 f2 d2 f0 bd 23 2f f3 bd 16 de 1f be 13 c8 bd bd
       -0.117589846 -0.11874225 -0.15612063 -0.09266677
000310 b0 9f c6 3b 81 0b 56 be 37 44 20 be b8 3e 10 be
       0.0060615167 -0.20902826 -0.15651022 -0.14086425
000320 52 6d a1 bd a7 cb be bd 7f 65 bd bd 42 67 07 be
       -0.07882179 -0.09316187 -0.092478745 -0.13222983
000330 85 d0 02 be 67 7e e7 bd bc 8f 4e be 70 33 56 be
       -0.12774856 -0.11303406 -0.20172018 -0.2091806
000340 2e b1 37 3b 47 96 34 be f3 e9 ac bc a5 89 6b 3d
       0.0028029191 -0.17635451 -0.02110765 0.057504315
000350 99 80 01 be 2f 50 2c be 7b a7 1c be 39 8a 64 be
       -0.12646712 -0.16827463 -0.15298264 -0.22318353
000360 2a e4 d8 bd b0 e3 d7 bd 93 ae 13 be 9c 97 dc bd
       -0.10590394 -0.10541475 -0.14422064 -0.10771105
000370 02 1d bd bd 73 e0 54 bd 7c f4 aa bd 3d 7f 09 bd
       -0.092340484 -0.051971864 -0.08347413 -0.03356861
000380 25 63 69 3d d5 bd 26 be bb a4 09 bd b7 3a c0 bd
       0.056979317 -0.16283353 -0.033604365 -0.09386199
000390 2f 9c 0b 3d fd 48 21 be 1a 35 90 bd 57 eb c7 bd
       0.034084495 -0.15750499 -0.07041378 -0.097616844
0003a0 48 fe 8a bd 0a c9 90 3c f4 ea 28 bc 1e b8 1f 3d
       -0.067867815 0.017673988 -0.010309923 0.038993947
0003b0 ee 84 a6 3d af 85 01 be 4e 27 a4 bd 24 a8 ad bd
       0.08130823 -0.12648652 -0.08015309 -0.08479336
0003c0 db 73 23 be 3d f1 91 bd 67 11 01 be 8e 95 87 bd
       -0.15962164 -0.07126091 -0.12604295 -0.06620322
0003d0 4f 96 79 bd ea 28 27 be 71 cb 8d bd 5a 3d ec bc
       -0.06093436 -0.16324201 -0.06923569 -0.028837848
0003e0 bf be 06 b9 2e fa 81 bd cd 57 f4 3d 9d 87 1b be
       -0.00012850294 -0.06346546 0.11930809 -0.15188451
0003f0 cf a6 9a bd 16 6e e9 bd d5 77 54 3c 65 e1 5e bd
       -0.075513475 -0.1139795 0.012968023 -0.05441417

actor.4.weight f4 [128, 256]
000000 2c c5 b1 3c 42 02 3b 3d 13 16 d2 3d 02 68 ba bd
       0.021700464 0.04565645 0.102581166 -0.09101869
000010 01 42 49 bd 36 41 54 3d af 65 cf bb 9f 65 83 bd
       -0.04913521 0.051820002 -0.0063292603 -0.06415867
000020 9a 46 14 bd 4f 80 d3 3d 49 af b8 ba 03 7a 36 bd
       -0.036200143 0.10327207 -0.0014090325 -0.044549953
000030 93 59 c7 3d 14 eb 39 bc 4b 8b e0 3d c7 bd 46 bc
       0.09733882 -0.011347551 0.10964068 -0.012130207
000040 7c 2e 18 be 92 af 51 bc 8b dc 31 bd e4 3b ad bc
       -0.14861482 -0.012798207 -0.043423217 -0.021146722
000050 d3 59 1c bd 31 82 1e bd a7 31 5a 3d 56 fe 24 be
       -0.0381716 -0.03869838 0.05327001 -0.16112646
000060 bf 08 76 3c 64 5d af 3b 01 8b 3b 3d bb 8f ff bc
       0.015016734 0.005351709 0.04578686 -0.031196466
000070 a0 6a 8a bd de 88 2f 3c 09 4e ea bc 77 c6 85 3b
       -0.06758618 0.010713784 -0.028601663 0.0040824967
000080 c4 ff 3a bd 41 1d 0b 3e 78 ee 12 3c b9 3b 8c 3d
       -0.045654073 0.13585378 0.008967988 0.06847329
000090 13 8d 0e bd bc 03 a1 3c 95 10 d2 3d d0 b3 89 bb
       -0.034802508 0.019655101 0.10257069 -0.0042023435
0000a0 4f 24 82 3d 70 23 55 bd 93 8a d3 3d c2 1a 9a bc
       0.063545816 -0.05203575 0.10329165 -0.018811587
0000b0 ea 57 0d be 35 6e c6 3c d0 71 ed bd d7 3f b5 bc
       -0.13803068 0.024222473 -0.11593974 -0.022125168
0000c0 d5 7d f4 3b 9b d6 e0 bd 03 1d 33 bd 00 1d 64 bd
       0.0074612894 -0.10978433 -0.04372884 -0.05569172
0000d0 ec ea 09 3c 53 ad 3b bd 1a f5 27 bd bf fe 80 3b
       0.008417826 -0.04581959 -0.04100523 0.003936618
0000e0 29 6e 85 3d e6 d6 d3 bd 7e 25 a8 3c 11 5d c1 3d
       0.06515152 -0.10343723 0.02052569 0.09441579
0000f0 c4 cb 6f 3d a4 8e 15 3d b3 98 62 3d 37 26 9e 3d
       0.058543935 0.036512986 0.055321407 0.07722133
000100 c7 83 17 3d b7 07 24 3e 3a 45 73 bd 2a e6 00 3e
       0.036990907 0.16018568 -0.05939219 0.125878
000110 38 64 a1 3c fe 48 f1 3b d6 e0 9a bd fe 43 d5 3d
       0.019701108 0.0073634377 -0.07562415 0.10413359
000120 c9 2a 11 3b de a4 ab 3d 67 0e fa bd 08 04 91 bd
       0.0022150746 0.08381055 -0.12209778 -0.07080847
000130 c5 42 97 3d 8b ed 36 3d 3e 7c 45 bd 2d 60 fb 3d
       0.07385782 0.044660132 -0.04821419 0.122742034
000140 aa 48 6b 3c dd 63 43 bd bd 6c ba 3d f4 8a d0 3d
       0.014360586 -0.04770266 0.091027714 0.10182753
000150 f1 70 92 3d 39 34 d0 3d ef 82 ca bb 96 40 8c bd
       0.07150448 0.10166211 -0.0061801593 -0.06848256
000160 40 fb 60 3d e9 fa 8c bd 16 26 1c 3d 06 1b 9b 3c
       0.05492711 -0.06883795 0.03812226 0.018933784
000170 01 1c 21 3c e9 dd a6 3d 4d 53 a1 3d 6d 3c a1 bd
       0.009833337 0.08147795 0.078772165 -0.078728534
000180 00 d2 24 3c 84 81 de bc 7b de 94 3d 22 8d a3 3d
       0.0100598335 -0.027161367 0.07268997 0.07985903
000190 07 c1 91 bd ae bf 83 bd fe a6 10 bd bc 80 4e 3d
       -0.07116895 -0.064330444 -0.035315506 0.05041574
0001a0 80 e4 95 bb a1 f8 8e 3d d5 a4 32 3b 4f 46 8a bc
       -0.0045743585 0.06981016 0.0027258892 -0.016879229
0001b0 b1 9a 53 bc b4 a4 df bd 72 29 c0 3d 70 fb 3f bc
       -0.012915299 -0.109200865 0.09382905 -0.011717662
0001c0 23 10 ea bd 5a 02 3d bc 65 da d9 bd ec 17 1e 3d
       -0.11428859 -0.011536205 -0.106373586 0.038597032
0001d0 16 83 46 bd 33 b7 e3 bd 26 11 22 3c b6 58 99 bd
       -0.048464857 -0.11118927 0.009891784 -0.074876234
0001e0 f1 22 cc 3d 08 a6 e4 3c 98 59 0a bd 66 13 1c 3d
       0.09967602 0.027911201 -0.03377685 0.038104437
0001f0 95 81 1f bd e7 58 bb 3d 72 a4 30 ba da 17 0c bd
       -0.03894194 0.09147816 -0.00067383714 -0.034202434
000200 9b 86 a0 bc 19 20 1e 3d b0 4f 81 bd 95 db 52 3c
       -0.019595435 0.03860483 -0.06314027 0.012869735
000210 e5 fe d5 bd 72 c3 b4 3c 11 fd 17 be 14 1c d8 3c
       -0.10449008 0.022065852 -0.14842631 0.026380576
000220 40 3e 77 bd 09 84 01 be d8 91 16 bd 9f 51 91 bd
       -0.0603621 -0.12648024 -0.03676018 -0.07095646
000230 be de 2f bc 76 63 dc 3b 25 5e 1b be d3 be 55 bc
       -0.010734258 0.006725724 -0.15172632 -0.013045984
000240 3d 36 d0 3d d3 90 8b 3b d6 e7 f0 3d f3 c4 b8 bd
       0.10166595 0.0042592078 0.11762969 -0.0902194
000250 6b 5c 7a bd d4 dd c6 bd ba bd d1 3c 33 87 62 3d
       -0.061123293 -0.09710279 0.025603164 0.055304717
000260 cd 96 99 bd de 1b e3 3c 60 24 29 3d 05 28 a5 bc
       -0.07499466 0.027723249 0.041294456 -0.020160684
000270 60 13 ab bd 33 54 22 3c 07 06 5e bd fc da cf 3d
       -0.08353305 0.00990777 -0.054204967 0.1014919
000280 67 1f dc bd 74 ea c3 3d b0 6e 04 3d 29 f6 3f bd
       -0.10748177 0.09566203 0.032332122 -0.046865616
000290 25 2e 62 3c 03 a8 1f 3d 0d 5a 91 3d 40 43 cd bc
       0.013804947 0.038978588 0.07097254 -0.025056481
0002a0 ed 4b 31 3d 33 60 84 3d 7a e4 fe 3c 8e c9 e7 3d
       0.0432853 0.06463661 0.031114805 0.113177404
0002b0 b4 92 e6 3d bb ad 27 3d 13 9d 84 3c 59 ca 10 3d
       0.1125845 0.040937167 0.01618818 0.035349224
0002c0 f7 71 10 bd 03 03 c2 bd eb 1f cb bc 3f b2 6f 3c
       -0.035264935 -0.09473231 -0.024795493 0.0146298995
0002d0 37 90 e8 bc 75 e7 b2 bd ff a9 3c bd 47 d4 f4 bc
       -0.02838908 -0.08735553 -0.04606056 -0.029886378
0002e0 58 03 01 3e 5b 45 a2 3d 64 cf 1d be 25 77 9e 3c
       0.12598932 0.07923385 -0.15411144 0.019343922
0002f0 03 bc 42 3d c8 8f ac 3b 8a 4f 4e bc 0a 1e c7 bd
       0.047542583 0.0052661635 -0.012592206 -0.09722526
000300 bf bb 88 3c 9e f5 a6 3d c1 1c ea bd 46 c9 89 bd
       0.016691087 0.081523165 -0.114312656 -0.06727843
000310 01 6d 9c 3d f9 cb 8c 3d 3b ec b0 3d 2a 9f ac 3d
       0.07637978 0.06874842 0.086388074 0.08428796
000320 0c a1 d8 bd 4a f7 56 3d 27 2b fd 3d e8 1f 0e be
       -0.10577592 0.052481927 0.12361746 -0.13879359
000330 c9 7b 4a bd 16 76 3b bd 91 22 ed bd e9 5e 04 bd
       -0.049434457 -0.045766912 -0.11578859 -0.032317076
000340 14 e9 74 bd 25 84 05 bd 85 57 15 bc 70 e3 58 bd
       -0.059792593 -0.032596726 -0.009115105 -0.052951276
000350 9f 38 dc bc 42 59 a3 bc 52 0f ea b8 46 9f 5e 3d
       -0.026882468 -0.019940022 -0.00011160843 0.054351114
000360 ef de 8d bd ae e8 e9 3c 60 4b 05 be 95 ea 02 bd
       -0.06927287 0.028553333 -0.13017035 -0.031961996
000370 2e 87 d8 bd 83 8a 93 3d 9b 8e 52 bd 75 4f 0f bc
       -0.105726585 0.072041534 -0.05140553 -0.008746971
000380 fd 45 17 3d 1a 34 89 3d 7a 58 e6 bc cd b3 6d bd
       0.03693198 0.06699391 -0.02811836 -0.0580328
000390 ad a9 73 3b ff c9 3f bd 93 23 16 3c dd 72 17 be
       0.0037179992 -0.046823498 0.009163755 -0.1478991
0003a0 b5 34 05 3e e9 23 9a 3d b8 b7 64 bc 22 f7 27 bd
       0.13008387 0.075263806 -0.013959818 -0.04100717
0003b0 83 a9 fc bc 12 a4 57 bd 9a a6 1d 3c 59 41 ae 3c
       -0.030842548 -0.052646704 0.00962224 0.021271395
0003c0 91 dd 65 3d 3c 40 b0 3d 62 e1 ac 3d ca e8 81 3d
       0.056119505 0.08606002 0.08441426 0.06343229
0003d0 00 93 9b 3b 6b 8f b9 bd ab 04 7f 3d 50 b8 14 bd
       0.0047477484 -0.09060558 0.06226031 -0.036308587
0003e0 bb 7b 93 bc 77 1f bc 3b 5f 84 2a be bd 92 f8 bd
       -0.018003335 0.0057410556 -0.16652058 -0.12137363
0003f0 fb 40 72 3d cf 17 19 3e e7 74 94 bc 5a fc a5 3d
       0.059144 0.14950489 -0.01812215 0.08104773

actor.4.bias f4 [128]
000000 0d 80 39 bd 38 46 b9 bd 9c 8c fb 3c 1e bb f8 3c
       -0.045288134 -0.09046596 0.030706696 0.030362662
000010 54 ab 81 bd 6c b7 e5 bc c3 65 ec bd 5d ff 52 bd
       -0.06331506 -0.028041564 -0.11542847 -0.051513065
000020 43 f5 18 be 87 09 14 bd 4a ba 11 bd 1d be a6 bc
       -0.1493731 -0.0361419 -0.03557805 -0.020354325
000030 81 19 fc bd bb 2e 0e be 40 ed a4 3b 82 b4 af bd
       -0.12309552 -0.13885014 0.005033165 -0.08579351
000040 4c f3 50 bd 8a 40 a2 bd f3 a4 0d be 52 28 f3 bd
       -0.051013276 -0.07922466 -0.13832454 -0.11872925
000050 e4 81 c5 3c b7 57 ce bb 42 cc 02 3d 61 cc 0c bd
       0.024109788 -0.0062970775 0.031933077 -0.0343746
000060 c1 6e f1 bd fd 8d ee bc 25 2e 36 bd 04 c1 5d 3b
       -0.11788703 -0.02912044 -0.0444776 0.003383697
000070 20 10 a9 bd 13 02 14 be 7e fd 03 be 2b f1 04 be
       -0.08255029 -0.14453916 -0.12889668 -0.12982623
000080 7e 40 b7 bc 65 7a be bd df de 46 be c7 c2 f5 bd
       -0.02236962 -0.09300689 -0.19420956 -0.120000415
000090 6f f4 5a be d0 85 4a bd 27 49 4d bd 43 98 dd bd
       -0.21382307 -0.04944402 -0.05011859 -0.10820057
0000a0 2e a0 57 bd 52 d6 b6 bd cd 94 89 bd 02 17 9f bb
       -0.052642994 -0.08927597 -0.067178346 -0.0048550377
0000b0 a3 b1 93 bd 12 a3 86 bd de 83 06 bd 06 26 4d be
       -0.07211616 -0.06574072 -0.032840602 -0.20034036
0000c0 aa ef 9b ba e0 e2 f6 bd 84 6d 86 bb 5a f6 3e bd
       -0.0011896987 -0.12054992 -0.0041024107 -0.046621658
0000d0 53 d3 b1 bd 62 6d fd bd 17 82 9f 3c d4 93 18 be
       -0.08682885 -0.12374379 0.019471211 -0.14900142
0000e0 b7 ae 0a bd 63 e3 78 bc 76 35 4c bd e4 61 0b be
       -0.033858027 -0.015190932 -0.04985567 -0.13611561
0000f0 d5 9f 0e bc 64 8b 9e bd 27 58 7b be d1 d5 3b 3b
       -0.008705099 -0.077414304 -0.24545346 0.002866138
000100 b1 03 5b bc af 71 5d be 5e 11 b4 bb 8c 7b 29 bd
       -0.013367579 -0.21625398 -0.0054952344 -0.04137759
000110 44 7a 91 bd 6f 62 a3 bd 13 39 21 bd d4 a4 d2 bd
       -0.071033984 -0.07977759 -0.03936107 -0.10285345
000120 75 4d 13 bd 02 67 8a bd f9 7d af bd ae c6 e7 bd
       -0.03596254 -0.067579284 -0.08568949 -0.11317192
000130 10 c0 45 bd 23 79 dd 3b 76 41 0c be 14 71 37 be
       -0.04827887 0.0067588254 -0.13696846 -0.1791423
000140 11 60 27 be 44 bf 03 3d 0a 4c e6 bc 31 d7 fd bd
       -0.1634524 0.032164827 -0.02811243 -0.1239456
000150 fa 3a 1f bd 76 08 e7 bc 31 0b f3 bd 49 a1 a3 bd
       -0.038874604 -0.028202277 -0.11867369 -0.07989747
000160 c0 50 28 3c 24 37 7b bd 15 39 a7 bd 38 a7 70 3d
       0.010273159 -0.061331883 -0.081651844 0.058753222
000170 4b 64 92 bc 82 25 64 bc 81 00 34 be 2b ff bb bc
       -0.017870089 -0.013924958 -0.17578317 -0.022948822
000180 4f 99 e2 bd e9 42 61 be 7d 22 df bd cb 57 f7 bc
       -0.110643975 -0.2199818 -0.1089525 -0.03019323
000190 4b 6c 39 bd 8b d5 51 bc 4f f3 32 bd d7 2c 24 be
       -0.04526929 -0.01280726 -0.04368907 -0.1603273
0001a0 04 29 d9 bd 27 5a e6 bc cb 6a 71 bd 0b 21 1f be
       -0.10603526 -0.02811916 -0.058939736 -0.15539949
0001b0 2e 0f 09 3d 00 24 07 bd b6 1d 47 be ec 98 88 bd
       0.033461742 -0.032993317 -0.19444928 -0.066697925
0001c0 3e a3 a5 3b 49 e3 00 be e0 74 8e be a5 5e 78 bd
       0.0050548604 -0.12586702 -0.27823544 -0.060637135
0001d0 fe 2c 07 be 3f 79 6f bd a0 f5 b2 bd 52 74 d1 bd
       -0.13200757 -0.05846524 -0.087382555 -0.102272645
0001e0 2e ad 24 be f5 36 92 bc 8e 73 33 be 88 ca 43 bd
       -0.16081688 -0.017848471 -0.1752455 -0.04780057
0001f0 1f 24 60 be bb c1 34 bd 9d 5f 13 bd 11 b8 a5 3b
       -0.21888779 -0.04413007 -0.035979856 0.005057343

actor.6.weight f4 [12, 128]
000000 7c 69 18 bd 8f e4 24 3e 00 94 39 bd 66 83 86 3d
       -0.037209973 0.16102813 -0.04530716 0.06568031
000010 12 42 15 3e be ef c7 bd 94 0b 08 3d c1 84 01 3d
       0.14575985 -0.09762524 0.033214167 0.031620745
000020 c5 d4 84 bd 68 a6 91 bd be 4e 85 bd 4e a5 54 bd
       -0.06485895 -0.071118176 -0.065091595 -0.05191546
000030 1b 9f 28 3c af 99 90 bb ce d1 dd bd 68 c8 8e 3d
       0.01029184 -0.0044128518 -0.10831033 0.06971818
000040 f1 86 4b bd ee 71 77 bd c3 b8 c1 3d 85 2e 1d bd
       -0.049689237 -0.060411386 0.094590686 -0.038374443
000050 29 41 4c 3d 14 95 b8 3d 3b 5a 0d bd 21 3f 13 3d
       0.04986683 0.090128094 -0.03450988 0.035948876
000060 0f 4d 5f b9 04 8f cf bd c7 cc 48 3d 04 b1 82 3d
       -0.00021295644 -0.101347 0.049023416 0.06381419
000070 45 5c 1d 3c 74 e3 4f 3d 5f 8d 9c bd 29 93 21 3e
       0.009604518 0.050754026 -0.07644152 0.15778793
000080 45 b3 e6 3b f8 24 49 bd 50 b7 21 3c a3 1b 71 bd
       0.0070404136 -0.04910752 0.009870365 -0.058864247
000090 4d c2 60 3d 5b 2a 4f bd 92 ee 9e bd 23 6c 37 3d
       0.0548728 -0.050577503 -0.077603474 0.04478086
0000a0 59 fc 22 3d b0 cc 8a bd 15 76 83 bc 66 6a 89 3c
       0.03979144 -0.06777322 -0.016047517 0.016774368
0000b0 31 85 2c bc b1 8b b3 bb b3 75 10 3e 28 b1 14 bd
       -0.010529802 -0.005479299 0.14107399 -0.036301762
0000c0 63 d9 27 bd 71 d0 d2 3c 46 49 eb bc 06 2a b8 3b
       -0.0409788 0.025734158 -0.028721463 0.005620244
0000d0 a1 36 35 bc cc 78 74 3d ec 01 dd bd 59 d2 de 3c
       -0.011060388 0.059685513 -0.10791382 0.027199911
0000e0 34 2e df bd 7f 82 a8 3c e4 77 90 3d 70 be d6 bc
       -0.108974844 0.020570038 0.07054117 -0.026213855
0000f0 8c 71 6d 3d 30 ce d6 bd 08 45 84 3d d2 46 9a bc
       0.057969615 -0.10488546 0.06458479 -0.018832598
000100 01 d8 4c 3d f7 ff 1f 3d f5 e2 a3 3d 85 32 9f bd
       0.050010685 0.039062466 0.08002273 -0.07773308
000110 68 27 bc bc da 51 d6 3c f2 17 85 bd cb 72 04 be
       -0.02296801 0.026162077 -0.06498708 -0.12934415
000120 31 f0 90 3d 44 07 98 bd 0e f5 fa bc 00 73 75 bd
       0.07077063 -0.07423261 -0.03063443 -0.059924126
000130 01 55 45 3d 6e ee 1e 3c e6 bf ed bc 1b 2b d8 bd
       0.04817677 0.009700401 -0.029022168 -0.10555097
000140 d9 ef c5 3d 83 22 6a bd 05 33 35 bd f0 72 95 3d
       0.09664888 -0.05716182 -0.04423811 0.07297313
000150 58 71 87 3d 6e ef f0 bd c3 4f 88 bd f2 23 dc 3b
       0.066134155 -0.117644176 -0.06655838 0.006718152
000160 cc dd 1a 3c 6d f8 74 3d bc 4d 9a bd 0c f2 3f bd
       0.009452295 0.05980723 -0.07534358 -0.046861693
000170 dc 5d 2b bd 30 a8 66 bd cd 41 13 3e 45 6b 57 bd
       -0.04183756 -0.05631274 0.1438057 -0.052592535
000180 c9 40 e9 bd f9 03 8d 3c 4f e5 08 3e e6 9a ad 3b
       -0.1138931 0.017213808 0.13368724 0.0052980063
000190 e4 a0 4f 3e dd e9 4b 3d c9 d9 b0 bd dd 84 9b bd
       0.20276219 0.049783576 -0.08635289 -0.07593701
0001a0 ce a5 87 bd 79 39 b2 3c 14 72 1e bc 4d 76 04 3e
       -0.066234216 0.02175592 -0.009670753 0.12935753
0001b0 8b cb d2 bd 53 31 87 bd 76 e1 94 3d d2 47 85 3d
       -0.10292729 -0.06601205 0.07269566 0.06507839
0001c0 54 84 cb 3d b6 49 9d 3d ca a6 ac bc 76 a6 05 bb
       0.09937349 0.07680075 -0.021075625 -0.0020393408
0001d0 85 01 87 bd 3e 41 9e 3d 46 33 b5 bd 55 a6 07 bd
       -0.06592087 0.07727288 -0.0884767 -0.03311761
0001e0 54 1c 74 3d cb b8 5a bd 37 e0 f6 bc 86 88 c2 3d
       0.05959733 -0.05339889 -0.03013621 0.09498696
0001f0 98 d0 a4 bd 9f ba 21 be 1e 95 9c bd ea 47 c7 bc
       -0.080475986 -0.15793847 -0.07645629 -0.024326283
000200 00 00 99 bc c9 94 57 bd 11 ad bf bc 5c 6c 7d 3c
       -0.018676758 -0.052632127 -0.023397954 0.015467729
000210 01 a7 d9 3d 61 6a 0f 3d e5 cf 80 bc 6f 8d 40 3d
       0.106275566 0.03501356 -0.015724132 0.04700988
000220 c4 37 d0 3d 7f 38 8b bd 8f dc 23 3c 2a 6c cb bd
       0.101668864 -0.06797885 0.010001316 -0.0993274
000230 3f 36 0a bd 03 ea f1 bd a1 73 03 bd 63 59 47 3d
       -0.03374314 -0.11812212 -0.032092694 0.04866923
000240 ff 8d 95 3d 0c dc 42 bc 94 5f b5 3d 8d da e7 bc
       0.07302474 -0.011893284 0.08856121 -0.028302455
000250 26 b9 c2 3d 10 78 21 3d 96 e7 4c be a9 4f b2 3c
       0.095079705 0.03942114 -0.20010218 0.0217665
000260 28 bd 05 3c 69 42 42 3d 15 49 c6 bb 39 a3 91 bd
       0.008162774 0.047426615 -0.0060511925 -0.071112104
000270 97 9e 0e 3c b0 fa 1d 3c 30 c9 39 bd aa 59 df bc
       0.008704803 0.009642288 -0.045357883 -0.027264435
000280 99 1f d8 bd ca 74 ba 3d 0d 6f 74 bd bb 23 08 bd
       -0.10552902 0.09104307 -0.05967622 -0.0332372
000290 a0 d0 7f bd d3 92 30 bd 14 fa 88 3d c0 93 09 bd
       -0.06245482 -0.043108772 0.066883236 -0.03358817
0002a0 9a 17 60 bd 6a 90 0e 3d ae 4c fc bd 7f 27 2d bd
       -0.05471001 0.034805693 -0.12319313 -0.042273995
0002b0 71 ec 36 bd 87 18 b1 bd 76 91 95 ba a5 fd 1f bc
       -0.04465908 -0.08647256 -0.0011411149 -0.009765063
0002c0 d8 ce 33 3c 0f 0e 71 3d 4c 5a c0 bc cc b1 8b bc
       0.010974608 0.058851298 -0.023480557 -0.017052554
0002d0 3a 15 f1 ba b2 cf 11 bd 3b 9b 37 bd 5d cd 86 3a
       -0.0018393167 -0.035598464 -0.044825774 0.0010284592
0002e0 e5 d0 44 bc b1 cb 9e bd 9a 3b 86 3c e2 70 36 3c
       -0.012012695 -0.07753695 0.016385842 0.011135312
0002f0 3b b6 0c 3e f7 b9 31 3c e1 f7 d5 bd 03 d9 24 3e
       0.1374139 0.01084756 -0.1044767 0.16098408
000300 14 33 05 bd a3 c4 3a 3b 75 80 89 3d e8 8e 74 3d
       -0.032519415 0.0028498552 0.06713954 0.0597066
000310 80 b5 cb bd a4 38 f3 3b 1e ba 95 bd ae 08 8f bd
       -0.09946728 0.0074225236 -0.0731089 -0.069840774
000320 8d 47 bc 3d 9b ce c2 bd bb ef da 3d 0f ae 2d bd
       0.09193335 -0.09512063 0.10690256 -0.042402323
000330 2b fc ef bd 5d 7c ae bc 5e a6 2a bd 89 06 40 be
       -0.11718019 -0.021299535 -0.041662566 -0.18752493
000340 cf 80 03 3e be c1 1e bd fd ca 91 b9 55 2f 9e 3d
       0.12842105 -0.038758986 -0.00027807793 0.077238716
000350 98 04 90 3d 55 26 81 3c d9 f9 46 bc fd de 29 bc
       0.07032126 0.015765348 -0.012144529 -0.010368106
000360 1f 01 96 ba bd 9f 00 be 13 8e a2 3d 1e 19 c5 3d
       -0.0011444426 -0.12560935 0.07937255 0.09623931
000370 1b cf 74 bd 22 9b 61 3d 31 cc a1 bc a4 b8 6f bd
       -0.059767824 0.055079587 -0.019750686 -0.058525696
000380 77 9a fd 3c 40 d5 e7 bd 33 29 a6 bd 3a e7 bc 3d
       0.030957444 -0.11319971 -0.08113327 0.092237905
000390 a9 13 c1 bd e1 87 9c 3b 6d d8 0c bd 66 db 96 3d
       -0.09427578 0.00477694 -0.034386087 0.07366066
0003a0 c4 77 37 bd 58 47 1d 3e 90 05 4d bc 72 b4 41 3a
       -0.04479195 0.15359247 -0.012513533 0.0007389254
0003b0 bc 59 ca bc 5c 06 a9 3d a6 31 19 3d ee 68 ee bc
       -0.024700992 0.08253166 0.037400864 -0.029102769
0003c0 f4 2c 99 bd 86 6c 99 3d 9d 47 c4 bc 89 88 c5 3c
       -0.07479277 0.07491402 -0.02395993 0.024112957
0003d0 75 07 c9 3d 89 85 33 bc 2d 1f bd bd cf df e5 3d
       0.098158754 -0.01095713 -0.09234462 0.11224329
0003e0 ee f3 c7 bd 3a 00 46 3d 9c d6 9f 3d 16 c7 40 3d
       -0.09763323 0.04834006 0.07804605 0.047064863
0003f0 d2 c5 92 3b 7f 36 0a 3d e5 23 7d bc c4 b8 81 3d
       0.0044791484 0.033743378 -0.015450452 0.06334069

actor.6.bias f4 [12]
000000 6c 7d 13 3d 07 97 6f 3c ec ed 58 3d 05 94 7f bd
       0.036008283 0.01462341 0.052961275 -0.06239702
000010 4b d1 eb 3d 16 dd 5f bd c6 26 d8 3c 1e 87 a9 3d
       0.11514529 -0.054654203 0.026385676 0.08277725
000020 d8 87 cb bd d0 4d d7 3c dd d2 e3 3c 61 91 5d 3c
       -0.099380195 0.026282221 0.027810508 0.013523431
