logs/rsl_rl/unitree_a1_flat/2025-03-19_19-07-54/exported/policy.onnx (onnx, 770837 bytes, 8 tensors)

actor.0.weight f4 [512, 51]
0.40557104 0.36753812 -0.404661 0.52470684 -0.63128346 0.08048101 0.0208686 -0.06277841
0.54398584 0.22906749 0.3612681 0.26431698 0.3054853 -0.1792139 -0.063105114 -0.3105839
0.053538803 0.04401067 -0.06895767 -0.2745118 0.21720153 0.57143104 0.076913044 -0.08099818
-0.27722305 0.16271281 0.11462117 0.48580253 0.2202398 0.05486997 0.37038952 0.1611953
-0.0005762805 -0.02636317 -0.12752949 0.016964959 0.021025134 -0.085420966 0.059225928 0.07027499
-0.031103015 -0.018739598 0.019095594 -0.004753059 -0.058971476 0.045618445 0.017207256 0.15585639
0.022761066 -0.011526802 -0.0028311561 0.21394536 -0.27229032 0.21716121 0.61357725 -0.53406054
-0.14233181 -0.2927363 0.39261538 -0.32971334 0.37499923 0.32624662 -0.039555155 0.013344191
-0.07357296 -0.1668329 0.028710244 0.04372625 -0.2350311 0.09457652 -0.42772993 0.11352538
-0.24731055 0.015654145 -0.026495539 0.2979499 -0.0676498 0.060864694 0.6874856 -0.31932634
-0.11672569 -0.1413984 -0.18269274 -0.149172 -0.021180684 -0.009184336 0.09142513 0.042931844
0.038845338 0.02453563 0.049721718 -0.03442744 0.07314589 0.07754413 0.09964165 0.029060552
0.011291179 0.033983886 0.06927711 -0.0057418616 -0.01592891 0.021429507 0.21847521 -0.27588284
0.35196227 0.26967874 -0.65451187 -0.37586626 -0.13552427 -0.0016150196 0.091739975 0.012601868
0.54737914 0.4755669 -0.13471927 0.42462242 -0.31876382 -0.056773517 0.016553285 -0.4148276
-0.0555591 -0.030079007 -0.0075321714 0.2784693 0.30365545 -0.0034224102 -0.11168977 -0.037010964
-0.4041544 0.6123888 -0.18696024 -0.07583036 -0.15646882 0.012136104 0.050673068 0.07368543
0.006830968 0.10687043 0.1794852 -0.012670587 -0.4603537 -0.03713594 0.05170859 0.031824894
0.11808662 0.015942262 -0.008222128 -0.028548623 -0.03569616 -0.030386725 -0.055454195 -0.01014049
-0.08351372 0.04309198 -0.75712955 -0.7221444 -0.32949376 -0.2762488 -0.30503425 -0.0542457
0.31071034 0.35293746 -0.18868281 0.32662836 0.14061473 -0.07910031 -0.093536586 -0.053429067
-0.30575478 -0.12838905 -0.1520481 -0.40203992 0.30631644 -0.15475087 0.13557951 0.29991856
0.31159076 0.30687514 -0.22780764 -0.107086435 0.35181627 0.020311499 -0.15382566 -0.3852812
0.012004627 -0.12294914 -0.026368188 0.054970346 -0.07446243 -0.046670314 0.0049050907 -0.12196792
0.11044036 0.030993093 0.073641226 -0.0029100524 0.1444198 0.042443465 -0.00081921363 0.08926324
-0.087113254 -0.018728353 0.003922917 -0.04683159 -0.08908835 0.32200903 0.19910087 0.78405166
-0.15644096 0.03885745 0.095186435 0.07193246 -0.44175756 -0.53205115 -0.09610728 0.00037229052
-0.49065578 0.3081918 -0.012909796 -0.3779535 -0.086216755 0.018904952 -0.40735626 0.15673538
0.38050953 0.10587479 0.37691432 0.35043424 0.30194893 -0.046472058 -0.003659135 0.113103576
-0.3018962 0.1238819 -0.45749685 0.020686954 0.26015842 0.040834647 0.017383587 -0.026021266
-0.036018677 -0.016194334 0.001602889 -0.051527705 0.011906817 0.023573702 -0.026387133 -0.060338184
-0.012986492 0.09331941 -0.029291596 0.10406505 0.0010179109 0.02924869 -0.038140774 -0.14794008
00000000: 02a7 cf3e f52d bc3e ba2f cfbe 3053 063f
00000010: cb9b 21bf 3ad3 a43d a0f4 aa3c f891 80bd
00000020: a842 0b3f ab90 6a3e 22f8 b83e 8e54 873e
00000030: 9268 9c3e d983 37be 413d 81bd da04 9fbe
00000040: 814b 5b3d 8844 343d ae39 8dbd d08c 8cbe
00000050: 146a 5e3e 4e49 123f 9684 9d3d 60e2 a5bd
00000060: 2ef0 8dbe 309e 263e 81be ea3d 1cbb f83e
00000070: 8b86 613e 55bf 603d b2a3 bd3e 6110 253e
00000080: 8811 17ba 93f7 d7bc 1797 02be 19fa 8a3c
00000090: e73c ac3c 30f1 aebd e396 723d 55ec 8f3d
000000a0: c0cb febc c983 99bc 5d6e 9c3c 8cbf 9bbb
000000b0: 138c 71bd 68da 3a3d 3bf6 8c3c d198 1f3e
000000c0: 6a75 ba3c e9da 3cbc eb8a 39bb 7e14 5b3e
000000d0: a369 8bbe 825f 5e3e 6613 1d3f 31b8 08bf
000000e0: 6ebf 11be 88e1 95be e204 c93e 30d0 a8be
000000f0: e6ff bf3e cc09 a73e 9604 22bd 98a1 5a3c
00000100: 6cad 96bd 3ed6 2abe bf31 eb3c 4c1a 333d
00000110: feab 70be 56b1 c13d 6bff dabe ff7f e83d
00000120: fa3e 7dbe 1f3d 803c 2c0d d9bc e48c 983e
00000130: fa8b 8abd 424d 793d 0eff 2f3f be7e a3be
00000140: e10d efbd beca 10be ce13 3bbe 8bc0 18be
00000150: 1d83 adbc e679 16bc 193d bb3d 4dd9 2f3d
00000160: 4a1c 1f3d f2fe c83c 00a9 4b3d ca03 0dbd
00000170: 83cd 953d 75cf 9e3d ec10 cc3d 6510 ee3c
00000180: a3fe 383c b032 0b3d 28e1 8d3d 3a26 bcbb
00000190: 587d 82bc ef8c af3c f7b7 5f3e 8440 8dbe
000001a0: 6634 b43e 5513 8a3e 178e 27bf 8b71 c0be
000001b0: e0c6 0abe 11af d3ba 2be2 bb3d 1178 4e3c
000001c0: 0a21 0c3f 817d f33e d9f3 09be 1c68 d93e
000001d0: 0335 a3be 598b 68bd c19a 873c 4864 d4be
000001e0: f091 63bd 4068 f6bc 6fd0 f6bb 8793 8e3e
000001f0: ba78 9b3e 844a 60bb 9bbd e4bd cf98 17bd
00000200: 53ed cebe 83c5 1c3f 8172 3fbe f34c 9bbd
00000210: 5d39 20be 82d6 463c 908e 4f3d 63e8 963d
00000220: 50d6 df3b e2de da3d f8ca 373e 4b98 4fbc
00000230: 7bb3 ebbe db1b 18bd 63cc 533d d25a 023d
00000240: 66d7 f13d 5999 823c 1bb6 06bc cdde e9bc
00000250: 2336 12bd 95ed f8bc f023 63bd 4c24 26bc
00000260: 3e09 abbd 3781 303d 3ed3 41bf 75de 38bf
00000270: 68b3 a8be 7c70 8dbe 732d 9cbe bd30 5ebd
00000280: 6d15 9f3e 38b4 b43e 1136 41be d53b a73e
00000290: 4ffd 0f3e 58ff a1bd 1c90 bfbd 70d8 5abd
000002a0: e48b 9cbe 6b78 03be 7fb2 1bbe 2dd8 cdbe
000002b0: 82d5 9c3e 0377 1ebe 5bd5 0a3e ed8e 993e
000002c0: d388 9f3e bd1e 9d3e 6846 69be 2250 dbbd
000002d0: 4321 b43e 4d64 a63c 7984 1dbe 9443 c5be
000002e0: 0eaf 443c c2cc fbbd 1902 d8bc 9628 613d
000002f0: c27f 98bd 5f29 3fbd e2ba a03b 51ca f9bd
00000300: 8e2e e23d 3ae5 fd3c 36d1 963d 94b6 3ebb
00000310: c9e2 133e 33d9 2d3d 7fc0 56ba a5cf b63d
00000320: 6f68 b2bd 346c 99bc d08b 803b 7bd2 3fbd
00000330: f473 b6bd 5ede a43e 19e1 4b3e 9cb7 483f
00000340: 0f32 20be fd28 1f3d 1bf1 c23d 5351 933d
00000350: 0c2e e2be 8134 08bf e5d3 c4bd fd2f c339
00000360: 3c37 fbbe 51cb 9d3e 9c83 53bc 1f83 c1be
00000370: 6992 b0bd 8fde 9a3c 0091 d0be 3d7f 203e
00000380: 25d2 c23e e2d4 d83d eafa c03e 1e6c b33e
00000390: 0d99 9a3e 7c59 3ebd 19ce 6fbb d9a2 e73d
000003a0: 2492 9abe cbb5 fd3d 073d eabe b077 a93c
000003b0: 7c33 853e 3b42 273d 0668 8e3c 8d2a d5bc
000003c0: 5288 13bd fba9 84bc 0818 d23a b70e 53bd
000003d0: cf14 433c a31d c13c d429 d8bc 2c25 77bd
000003e0: 4cc5 54bc 3f1e bf3d eef4 efbc 0f20 d53d
000003f0: 6c6b 853a f39a ef3c 8039 1cbd 9b7d 17be

actor.0.bias f4 [512]
0.07347614 0.11749261 -0.17454761 -0.025622703 -0.16330153 -0.03455525 0.04554223 0.07014809
0.063317314 -0.016552715 -0.08154328 0.01026903 0.22190078 -0.0034173077 -0.11282264 -0.15763126
0.09526303 0.020721225 -0.024316017 -0.04934309 -0.05374702 -0.1946939 -0.075746424 -0.19757792
0.11049207 0.1237106 -0.09532643 0.0026895825 -0.03374542 0.16177633 0.019927375 -0.120306574
0.065311 0.098195545 -0.13228558 0.08711803 0.016469559 -0.07921483 0.26945147 -0.059492994
-0.01939108 0.027601447 -0.07531928 0.12626565 0.010448216 -0.07674054 -0.029525956 -0.16025223
-0.10739096 -0.018620804 -0.12883814 0.1801314 0.012945766 0.07734703 0.060433276 -0.11734411
0.16707337 -0.054850355 -0.06340061 0.15280665 0.038595717 -0.1755427 0.11190003 0.0076480526
0.24371414 0.13825136 -0.11965569 0.13413402 -0.06239444 -0.06366443 0.123907275 0.09732599
0.0067093214 -0.118581906 -0.093144245 0.01865143 -0.120588064 0.016339703 -0.29061878 -0.06375523
0.018490866 -0.1034024 -0.083301224 0.114484295 -0.19858521 -0.1984168 -0.07910147 0.05931846
0.030252835 0.13133319 -0.120128654 0.051934008 -0.14746195 -0.122403525 0.07196748 -0.12704648
-0.0048965393 -0.10379295 0.16720168 0.108344264 0.06897843 -0.050934862 -0.053448435 0.14097026
0.0037069842 0.20052025 0.022659933 0.119254775 -0.13811503 -0.019447079 -0.019208211 0.06675394
-0.11913041 -0.12830345 -0.2136876 -0.14738719 -0.009359084 0.095184386 0.014478107 -0.00853368
-0.16573091 0.035878398 -0.12678185 -0.009712858 -0.14748013 -0.041323103 0.081133746 -0.15919405
-0.17258307 0.009842324 -0.07185383 -0.05071509 0.020051224 0.13000812 -0.057468947 -0.12896904
-0.06512606 0.12586059 0.08676427 0.028753635 -0.033883262 -0.14268276 -0.045915622 0.15439212
-0.018428711 -0.04711617 0.14935441 0.17399195 -0.114053026 0.08796605 -0.16151465 -0.12826538
0.047248434 -0.03758498 -0.1060766 0.03280214 0.22471221 -0.14906922 0.0773585 0.029506326
-0.18003283 -0.13229571 -0.12200206 -0.19903731 -0.03539344 0.07520556 -0.042681184 0.16403224
-0.10552366 -0.04632793 0.06785188 -0.008642512 -0.0027083359 0.22337668 -0.0111294305 -0.08357823
-0.022322206 -0.024800833 0.08672161 -0.0325575 -0.20878485 -0.10053914 0.13157485 0.012089237
0.089650415 -0.04135757 0.12185737 0.0029344293 -0.09043041 0.042630337 -0.08317274 0.019221025
-0.11202984 0.12869215 -0.23399849 0.1121973 -0.05854148 0.07088448 -0.15054968 -0.1729315
0.01708454 -0.09303112 0.2951895 0.022662383 0.08818236 -0.044453055 -0.04545606 0.030910479
-0.17049131 -0.16133705 0.055821788 0.03249129 0.02151275 -0.017320462 0.1364055 -0.014581446
0.099078745 -0.02406094 -0.019710518 0.07693087 -0.060690448 -0.18596978 -0.121088855 -0.039394546
-0.053472135 0.10933803 -0.13910662 0.12497742 -0.24066736 -0.10826331 0.06983297 0.0740334
-0.11987876 -0.053353675 -0.089486115 0.11661025 -0.16003989 -0.13046154 -0.24461901 0.09281066
-0.14378102 0.038753692 0.0020084516 0.18169524 -0.18986653 -0.096609496 -0.0046554 -0.003985412
-0.015841855 -0.004531973 0.15606143 -0.11988341 0.07101372 0.05158847 -0.0006667804 -0.11209696
00000000: a97a 963d f79f f03d 9cbc 32be b4e6 d1bc
00000010: 8438 27be ce89 0dbd 7d8a 3a3d cda9 8f3d
00000020: 82ac 813d 8f99 87bc 2a00 a7bd 6f3f 283c
00000030: f539 633e e9f4 5fbb 8e0f e7bd 176a 21be
00000040: 4319 c33d 8fbf a93c 6232 c7bc fb1b 4abd
00000050: d625 5cbd d65d 47be f120 9bbd de51 4abe
00000060: ab49 e23d fc5b fd3d 813a c3bd b543 303b
00000070: a338 0abd b2a8 253e bc3e a33c 4b63 f6bd
00000080: c6c1 853d bf1a c93d df75 07be f06a b23d
00000090: 2beb 863c 633b a2bd 8bf5 893e edae 73bd
000000a0: 0bda 9ebc 6e1c e23c ff40 9abd c84b 013e
000000b0: ff2e 2b3c 252a 9dbd 6be0 f1bc 2919 24be
000000c0: cbef dbbd a88a 98bc 25ee 03be 5e74 383e
000000d0: 7a1a 543c 1f68 9e3d e288 773d 1c52 f0bd
000000e0: 4815 2b3e c4aa 60bd 2ed8 81bd 5979 1c3e
000000f0: 8b16 1e3d 77c1 33be d82b e53d 849c fa3b
00000100: 3390 793e c491 0d3e 0b0e f5bd 6e5a 093e
00000110: 5091 7fbd 7f62 82bd 19c3 fd3d d952 c73d
00000120: ded9 db3b 12db f2bd 69c2 bebd e2ca 983c
00000130: e0f6 f6bd d7da 853c fccb 94be 1a92 82bd
00000140: 287a 973c a3c4 d3bd d599 aabd be76 ea3d
00000150: ec59 4bbe c62d 4bbe f4ff a1bd eaf7 723d
00000160: cbd4 f73c 357c 063e 0306 f6bd c1b8 543d
00000170: 4400 17be b3ae fabd b063 933d 7918 02be
00000180: 2673 a0bb 6691 d4bd eb36 2b3e 99e3 dd3d
00000190: 9044 8d3d 13a1 50bd bfec 5abd 825a 103e
000001a0: e0f0 723b 2e55 4d3e 53a1 b93c d93b f43d
000001b0: 076e 0dbe 7b4f 9fbc 8a5a 9dbc 4ab6 883d
000001c0: a5fa f3bd fb61 03be ecd0 5abe abec 16be
000001d0: d856 19bc 08f0 c23d 9535 6d3c d9d0 0bbc
000001e0: 5db5 29be 3af5 123d 1ad3 01be ae22 1fbc
000001f0: 0805 17be 6a42 29bd 7329 a63d c403 23be
00000200: 9eb9 30be b341 213c 1a28 93bd a0ba 4fbd
00000210: 7742 a43c d920 053e 8f64 6bbd 7610 04be
00000220: d060 85bd 99e1 003e 77b1 b13d be8c eb3c
00000230: 2dc9 0abd 6e1b 12be 0512 3cbd f818 1e3e
00000240: cff7 96bc e3fc 40bd 5df0 183e f22a 323e
00000250: a294 e9bd 8b27 b43d 1964 25be 0058 03be
00000260: 9387 413d b5f2 19bd b03e d9bd 895b 063d
00000270: f51a 663e 9aa5 18be 226e 9e3d 40b7 f13c
00000280: 875a 38be 8778 07be 37dc f9bd 70d0 4bbe
00000290: b6f8 10bd 5f05 9a3d 77d2 2ebd 11f8 273e
000002a0: ca1c d8bd 5bc2 3dbd edf5 8a3d 5399 0dbc
000002b0: 567e 31bb dbbc 643e 3758 36bc 102b abbd
000002c0: 0fdd b6bc 1e2b cbbc 199b b13d 035b 05bd
000002d0: b2cb 55be 77e7 cdbd 8fbb 063e ef11 463c
000002e0: a39a b73d 8e66 29bd 5b90 f93d 8e4f 403b
000002f0: 9433 b9bd 269d 2e3d 7856 aabd 6975 9d3c
00000300: e76f e5bd e0c7 033e 4d9d 6fbe b3c7 e53d
00000310: 31c9 6fbd e22b 913d b229 1abe f514 31be
00000320: e1f4 8b3c 1a87 bebd 1423 973e 76a6 b93c
00000330: f498 b43d 6814 36bd 2230 3abd f937 fd3c
00000340: 4695 2ebe 8a35 25be 63a5 643d 9615 053d
00000350: 823b b03c a4e3 8dbc e2ad 0b3e 04e7 6ebc
00000360: cce9 ca3d 731b c5bc f477 a1bc ef8d 9d3d
00000370: 8c96 78bd dd6e 3ebe 6ffd f7bd 2d5c 21bd
00000380: 9905 5bbd 9eec df3d f771 0ebe 29f4 ff3d
00000390: 8171 76be 27b9 ddbd 9704 8f3d d39e 973d
000003a0: ff82 f5bd 6289 5abd 7f44 b7bd 5bd1 ee3d
000003b0: 7fe1 23be b697 05be 687d 7abe 8413 be3d
000003c0: 553b 13be 31bc 1e3d 3aa0 033b 510e 3a3e
000003d0: 5f6c 42be 33db c5bd 538c 98bb 0f98 82bb
000003e0: c7c6 81bc f280 94bb 91ce 1f3e 6f85 f5bd
000003f0: a46f 913d 6e4e 533d e0ca 2eba 1793 e5bd

actor.2.weight f4 [256, 512]
0.09941695 -0.10586673 -0.19645019 0.04974596 -0.045770407 -0.09465756 0.151771 -0.066507414
-0.25951672 -0.060942307 0.031159911 -0.08132367 -0.14146517 -0.14628041 -0.0622216 -0.078011885
-0.14077833 -0.0311691 0.2178569 -0.04485955 0.019592643 -0.1861088 -0.061982974 0.092863426
0.08531956 0.025214618 -0.0032756429 -0.04457631 -0.120951794 -0.026412588 0.05237219 -0.20268406
-0.056625467 0.044152234 0.14513615 0.009204204 -0.09193372 0.13566583 0.114145145 -0.1595625
0.008252768 -0.037312508 -0.1137788 0.082043655 0.06632816 0.01224277 0.0821726 -0.050983522
-0.06613422 -0.050585132 0.07865921 0.1311764 0.112590715 0.1270688 -0.14351098 -0.10564581
-0.09592589 -0.007152695 -0.18390992 -0.007395324 0.16785917 0.08554573 0.07155737 -0.061559893
0.004747796 -0.015492302 -0.04411136 -0.021422397 0.0025712668 0.13959093 0.023053268 0.011186591
0.1446905 0.17575358 0.25757542 0.030776214 0.0077038803 -0.05582684 -0.10320104 -0.031071909
-0.0766469 0.13493939 -0.07895284 -0.25015047 -0.13785022 -0.038140282 -0.020488512 0.18156107
-0.053665847 -0.1919742 -0.26138526 -0.034506086 0.066335015 0.059020877 -0.14626108 0.0101076765
0.02540215 -0.13837188 -0.16468649 0.058188673 0.08564659 -0.001609992 -0.15385409 0.08500748
-0.009966526 -0.17271537 -0.09372117 0.07893562 -0.16758844 -0.038094416 -0.014070867 -0.05706046
0.068705946 -0.23215699 0.04343762 -0.07139515 0.044095844 -0.026122019 -0.030194025 0.111862585
-0.0024026805 0.10787057 -0.12763001 0.025797073 0.081639275 0.035827115 0.008008376 0.1373891
-0.08630058 -0.028929263 0.0026215808 -0.029338352 -0.10413957 -0.06846092 0.019717645 -0.0019218934
-0.14055239 -0.031641137 -0.112657174 -0.034690984 -0.264072 0.07750123 0.09258803 -0.044692803
0.06280683 0.056346476 0.037084095 -0.05331585 0.0807349 -0.05985209 -0.120233364 0.13404042
0.088992216 0.11265016 0.17215542 -0.14721999 0.18499365 -0.054678455 -0.0018303718 -0.088511795
0.07934439 0.03273907 -0.012183443 -0.1432634 0.030214885 0.13629717 -0.14373142 -0.0013170615
0.06929054 0.0064491183 -0.029590176 0.13384753 -0.008001253 0.11169354 -0.12025814 0.1510492
0.10038832 0.07830157 -0.023748487 0.14596023 -0.06406487 -0.18242636 0.0052144583 -0.01092586
0.111432366 0.07694869 0.22621483 -0.13129635 0.03255931 -0.03218445 -0.044787347 -0.0117555
-0.038876556 -0.08900925 -0.06530171 -0.026327 0.08880819 -0.023606546 -0.0148064615 0.08304907
-0.18851621 -0.11606641 -0.08848749 -0.0025648864 0.09961239 -0.047107283 -0.07664347 0.06993073
0.0665485 -0.066121615 0.012544811 -0.005273505 0.056288287 0.02297153 -0.23473178 0.0149693405
-0.13209786 -0.003156303 0.07150287 0.09735077 -0.10543435 0.0013842875 -0.08863706 -0.15887319
-0.06498581 -0.041989803 -0.05520652 -0.06004844 0.2048099 0.06405541 -0.003909876 -0.059501164
-0.122183256 0.0005283607 0.005868733 0.01793103 0.03724958 0.045839846 -0.012909106 -0.07534403
-0.20625643 0.19608463 -0.025542138 -0.1205795 -0.0019620804 -0.012627066 -0.07786178 0.0063619143
0.003605495 0.090058096 -0.0110565685 -0.05693652 0.031922515 -0.1408034 0.00961227 0.06148683
00000000: 1d9b cb3d a8d0 d8bd 3d2a 49be 6bc2 4b3d
00000010: c079 3bbd d3db c1bd db69 1b3e 0a35 88bd
00000020: 60df 84be a49e 79bd 1243 ff3c 068d a6bd
00000030: 3fdc 10be 88ca 15be 14dc 7ebd b2c4 9fbd
00000040: 3228 10be 5756 ffbc e115 5f3e a6be 37bd
00000050: c080 a03c 4e93 3ebe dce1 7dbd 2e2f be3d
00000060: 05bc ae3d e38e ce3c 2bac 56bb a695 36bd
00000070: 93b5 f7bd 365f d8bc 3984 563d 698c 4fbe
00000080: 1bf0 67bd f9d8 343d 929e 143e 3bcd 163c
00000090: bf47 bcbd fceb 0a3e eec4 e93d 5a64 23be
000000a0: 9e36 073c 00d5 18bd dc04 e9bd 8106 a83d
000000b0: 0fd7 873d e695 483c 1c4a a83d 19d4 50bd
000000c0: 6171 87bd 5b32 4fbd 1418 a13d 1b53 063e
000000d0: f695 e63d 531e 023e 8bf4 12be d55c d8bd
000000e0: cb74 c4bd 2861 eabb e252 3cbe 7954 f2bb
000000f0: 46e3 2b3e 9a32 af3d ac8c 923d 3a26 7cbd
00000100: 6693 9b3b 6dd3 7dbc 1dae 34bd 067e afbc
00000110: b382 283b edf0 0e3e 35da bc3c f747 373c
00000120: bf29 143e bff8 333e ede0 833e 661e fc3c
00000130: d570 fc3b afaa 64bd 115b d3bd 848a febc
00000140: 0df9 9cbd 8d2d 0a3e 07b2 a1bd b913 80be
00000150: 9c28 0dbe fc38 1cbd 86d7 a7bc 25eb 393e
00000160: b8d0 5bbd e294 44be 4ad4 85be 4156 0dbd
00000170: a7da 873d e0bf 713d 77c5 15be ab9a 253c
00000180: 2b18 d03c 5cb1 0dbe 93a3 28be 3f57 6e3d
00000190: 7b67 af3d 5e06 d3ba ed8b 1dbe 6718 ae3d
000001a0: a44a 23bc 4cdc 30be e3f0 bfbd 00a9 a13d
000001b0: 4e9c 2bbe e408 1cbd 7e89 66bc 3bb8 69bd
000001c0: b4b5 8c3d 90ba 6dbe a5eb 313d 9f37 92bd
000001d0: d89d 343d d8fd d5bc 7659 f7bc 3618 e53d
000001e0: 4a76 1dbb 3feb dc3d 71b1 02be 6254 d33c
000001f0: 7e32 a73d 74bf 123d 9035 033c baaf 0c3e
00000200: 5cbe b0bd 10fd ecbc d4ce 2b3b fc56 f0bc
00000210: 2047 d5bd 3d35 8cbd e686 a13c 0be8 fbba
00000220: f7ec 0fbe 239a 01bd ceb8 e6bd 2218 0ebd
00000230: 7234 87be f7b8 9e3d cb9e bd3d cd0f 37bd
00000240: dea0 803d 90cb 663d 7ee5 173d b961 5abd
00000250: 5758 a53d 7727 75bd e93c f6bd e441 093e
00000260: 8d41 b63d 21b5 e63d 8349 303e d6c0 16be
00000270: fa6e 3d3e 84f6 5fbd 16e9 efba ac45 b5bd
00000280: 507f a23d 6719 063d 109d 47bc a4b3 12be
00000290: 3585 f73c 7c91 0b3e 542e 13be 40a1 acba
000002a0: 33e8 8d3d 2053 d33b 1967 f2bc 540f 093e
000002b0: b017 03bc 95bf e43d e649 f6bd a4ac 1a3e
000002c0: 6498 cd3d 935c a03d 308c c2bc 9976 153e
000002d0: 7134 83bd facd 3abe 0cde aa3b 6102 33bc
000002e0: a736 e43d 4697 9d3d dca4 673e 8d72 06be
000002f0: e95c 053d d8d3 03bd f072 37bd 249a 40bc
00000300: 063d 1fbd 7b4a b6bd e7bc 85bd b9ab d7bc
00000310: 11e1 b53d 8462 c1bc cd96 72bc a115 aa3d
00000320: 650a 41be 3ab4 edbd ee38 b5bd a717 28bb
00000330: 9501 cc3d 91f3 40bd 40f7 9cbd d837 8f3d
00000340: 944a 883d c56a 87bd c088 4d3c 5ecd acbb
00000350: 8c8e 663d ca2e bc3c 875d 70be f741 753c
00000360: a944 07be fad9 4ebb 1970 923d d75f c73d
00000370: f7ed d7bd fb70 b53a 5987 b5bd a7af 22be
00000380: 4817 85bd 80fd 2bbd 3b20 62bd 5af5 75bd
00000390: b0b9 513e 7c2f 833d 6b1e 80bb 7eb7 73bd
000003a0: 373b fabd b081 0a3a 804e c03b 18e4 923c
000003b0: 0493 183d 90c2 3b3d b780 53bc f94d 9abd
000003c0: e334 53be 69ca 483e bf3d d1bc 63f2 f6bd
000003d0: 3f96 00bb c1e1 4ebc ff75 9fbd 9b77 d03b
000003e0: 2b4a 6c3b 6170 b83d 9c26 35bc 4536 69bd
000003f0: 2fc1 023d c42e 10be c87c 1d3c 9dd9 7b3d

actor.2.bias f4 [256]
-0.07304343 -0.056084514 0.011308198 -0.116455674 -0.07202825 -0.0052151266 -0.1021279 -0.15901698
-0.1548427 0.072199136 -0.13673612 -0.18415141 -0.052019812 -0.12168322 -0.010291086 -0.07396728
-0.20472011 -0.1659736 0.18611461 0.011142805 0.01899705 -0.06916601 -0.17429738 0.124529995
-0.15127526 -0.043198735 -0.05430182 -0.2129099 0.039025664 -0.11389322 -0.023411307 -0.10745707
-0.093518674 -0.18742359 -0.14383808 0.036744103 -0.036396287 -0.08602234 -0.013639213 -0.12607531
-0.09826598 -0.07200728 -0.08638552 -0.08219504 -0.06953219 -0.14188273 -0.109239325 -0.21554855
-0.21773648 0.053503472 0.056608446 -0.07840122 -0.080144465 -0.17553774 0.06004196 0.02453513
-0.236798 0.030649444 -0.17445412 -0.09763662 -0.091467015 -0.08544195 -0.15784933 -0.07174396
0.025072118 -0.21905054 -0.03523596 -0.09135427 -0.16527703 -0.06627065 -0.11901177 -0.0959064
-0.09166148 -0.093423 -0.124436595 -0.05578673 -0.08578002 -0.19344956 -0.10027413 -0.03909118
0.0018060087 -0.04025594 -0.16986701 -0.009796491 -0.10715471 0.0002990765 -0.0330135 -0.06645622
-0.16461192 0.06335958 0.011144272 -0.095844775 0.00506596 -0.074156635 -0.06883031 0.0137292845
-0.09507492 -0.014534404 0.0052896086 -0.176321 -0.04954174 -0.12887861 -0.18069594 -0.17272887
-0.16343018 -0.11146676 0.051189348 -0.07430352 -0.02245948 0.05766377 -0.013562805 -0.15213314
-0.13231736 0.026321236 -0.057306956 -0.061752267 -0.0099685965 -0.14657153 0.08097128 -0.004501658
-0.11646682 0.05337173 -0.058466606 -0.067891434 0.09603365 0.0013122297 -0.122398645 -0.040625278
-0.08997338 -0.09613727 -0.036552798 -0.01092104 0.0029822148 -0.16552003 -0.06264839 -0.012949948
-0.25752026 -0.053440604 0.030313775 -0.13671935 -0.0065094805 0.004532816 -0.025451116 -0.14304765
-0.09870605 -0.0885863 -0.06731077 -0.03402988 -0.06014172 -0.08638526 -0.0013235247 -0.08651737
-0.20353103 -0.062014606 -0.095474474 -0.27801898 -0.20892313 -0.041592233 -0.11750037 -0.06734134
0.10500146 -0.07807551 -0.051913332 -0.014043344 -0.12050382 -0.11665508 -0.07910437 -0.04471898
0.050155245 -0.057603367 -0.15887493 -0.020007687 -0.098288685 -0.03460376 0.0011288996 -0.06725837
-0.041667394 -0.106130175 -0.12226745 -0.16562292 -0.04833877 0.11914886 -0.24008685 -0.03933095
-0.12694338 0.002906241 -0.037409175 0.07679983 0.10247651 0.03217522 -0.16080023 -0.13144718
-0.032070536 -0.022110105 -0.16758475 -0.0957563 -0.22553746 -0.0026646962 -0.071301624 -0.16946162
-0.02808445 -0.20149739 -0.15126595 -0.05453677 -0.18895629 -0.06663694 -0.066404276 -0.11106031
-0.10936271 0.029381767 -0.1377649 -0.11835094 0.027841603 -0.17355293 -0.068431385 -0.0006099988
-0.06650607 -0.07735535 -0.2816553 -0.1517521 -0.09563066 0.03189609 -0.029229578 -0.054680925
-0.016900353 -0.17659219 -0.23912528 -0.17375638 -0.10131213 0.07239901 -0.1367843 -0.12574679
-0.16536695 -0.110039264 -0.049658313 -0.05522296 0.12018653 -0.15182987 -0.07858182 -0.17582546
-0.093347296 -0.23761988 -0.0919536 -0.019394146 -0.18250498 -0.12587418 -0.059923463 -0.11006168
-0.15306771 -0.06573031 -0.08852979 -0.17527547 -0.18651243 -0.14066938 -0.19040102 -0.24159336
00000000: cb97 95bd e0b8 65bd 0546 393c 5080 eebd
00000010: 8c83 93bd a7e3 aabb 6f28 d1bd 59d5 22be
00000020: 168f 1ebe 24dd 933d 8e04 0cbe 3092 3cbe
00000030: ba12 55bd 0d35 f9bd f19b 28bc 287c 97bd
00000040: 26a2 51be fcf4 29be d494 3e3e 5090 363c
00000050: b49f 9b3c e9a6 8dbd 037b 32be 9509 ff3d
00000060: e7e7 1abe 28f1 30bd 966b 5ebd 0e05 5abe
00000070: 60d9 1f3d d940 e9bd 12c9 bfbc 7412 dcbd
00000080: b886 bfbd f8eb 3fbe 4a4a 13be fc80 163d
00000090: 4614 15bd 7b2c b0bd 0177 5fbc e319 01be
000000a0: ad3f c9bd 8e78 93bd e4ea b0bd e055 a8bd
000000b0: e566 8ebd b549 11be deb8 dfbd c2b8 5cbe
000000c0: 50f6 5ebe 7526 5b3d 42de 673d d290 a0bd
000000d0: c822 a4bd 2ac0 33be 8fee 753d e6fd c83c
000000e0: 2d7b 72be 8b14 fb3c 1aa4 32be b5f5 c7bd
000000f0: 0f53 bbbd 30fc aebd 41a3 21be 7fee 92bd
00000100: 0b64 cd3c c94e 60be 9553 10bd f317 bbbd
00000110: 623e 29be e8b8 87bd 71bc f3bd 936a c4bd
00000120: 04b9 bbbd 8f54 bfbd 9dd8 febd a080 64bd
00000130: 6fad afbd a417 46be 865c cdbd 131e 20bd
00000140: 99b7 ec3a 6ae3 24bd 9ef1 2dbe 7681 20bc
00000150: ee73 dbbd 5ecd 9c39 2a39 07bd 331a 88bd
00000160: 0790 28be abc2 813d 7796 363c 444a c4bd
00000170: 5a00 a63b 6fdf 97bd e8f6 8cbd cbf0 603c
00000180: a4b6 c2bd b521 6ebc 7454 ad3b 7e8d 34be
00000190: 48ec 4abd c1f8 03be 5b08 39be d6df 30be
000001a0: 3e5a 27be af48 e4bd ecab 513d 722c 98bd
000001b0: f2fc b7bc d830 6c3d 8736 5ebc cac8 1bbe
000001c0: 347e 07be a29f d73c b3ba 6abd f2ef 7cbd
000001d0: 5353 23bc d916 16be 45d4 a53d a582 93bb
000001e0: 2886 eebd 519c 5a3d ae7a 6fbd aa0a 8bbd
000001f0: 4aad c43d 1fff ab3a 24ac fabd b166 26bd
00000200: f743 b8bd 9ee3 c4bd 63b8 15bd 29ee 32bc
00000210: 4371 433b 157e 29be cd4d 80bd 052c 54bc
00000220: b2d9 83be 89e4 5abd 9854 f83c 2800 0cbe
00000230: 7b4d d5bb 0488 943b dc7e d0bc 157b 12be
00000240: 6626 cabd bc6c b5bd 3bda 89bd ea62 0bbd
00000250: 2a57 76bd c1ea b0bd 1f7a adba 0530 b1bd
00000260: 706a 50be 0703 7ebd 1f88 c3bd 8158 8ebe
00000270: f2ef 55be 9e5c 2abd 09a4 f0bd 42ea 89bd
00000280: 010b d73d 0ee6 9fbd 13a3 54bd 0e16 66bc
00000290: b5ca f6bd dce8 eebd 7901 a2bd 402b 37bd
000002a0: 966f 4d3d 82f1 6bbd 1cb0 22be 29e7 a3bc
000002b0: 944b c9bd acbc 0dbd 96f7 933a c2be 89bd
000002c0: 6eab 2abd c75a d9bd 5b67 fabd 0e99 29be
000002d0: e0fe 45bd 5104 f43d 54d9 75be 7d19 21bd
000002e0: 72fd 01be a276 3e3b 5d3a 19bd 3b49 9d3d
000002f0: 34df d13d 2aca 033d d1a8 24be 179a 06be
00000300: 655c 03bd 4020 b5bc 569b 2bbe e11b c4bd
00000310: 4bf3 66be 2fa2 2ebb 9606 92bd 5987 2dbe
00000320: 5c11 e6bc 5555 4ebe 76e5 1abe f361 5fbd
00000330: c27d 41be f378 88bd f7fe 87bd 9673 e3bd
00000340: 8ef9 dfbd 08b2 f03c 3e12 0dbe fa61 f2bd
00000350: 1314 e43c dcb7 31be c125 8cbd 54e8 1fba
00000360: 5634 88bd 7b6c 9ebd 2035 90be e764 1bbe
00000370: 02da c3bd 79a5 023d de72 efbc 1bf9 5fbd
00000380: 9c72 8abc 95d4 34be 42dd 74be 31ed 31be
00000390: bc7c cfbd ef45 943d 2f11 0cbe c4c3 00be
000003a0: f455 29be 445c e1bd 8466 4bbd 7831 62bd
000003b0: 5b24 f63d 4a79 1bbe 81ef a0bd 970b 34be
000003c0: de2c bfbd a052 73be 2b52 bcbd 79e0 9ebc
000003d0: 96e2 3abe 29e5 00be 4e72 75bd 0568 e1bd
000003e0: c8bd 1cbe 9d9d 86bd 1b4f b5bd 6a7b 33be
000003f0: 1dfd 3ebe a20b 10be 7cf8 42be 4064 77be

actor.4.weight f4 [128, 256]
0.039889056 -0.012172566 -0.20019919 0.06475579 -0.08667533 0.0023817294 -0.1505614 0.02414791
-0.25390574 -0.06643185 -0.039523236 0.07525591 0.053953998 -0.103373446 -0.07056167 0.028825786
0.03007637 0.12330696 -0.019459952 -0.034010388 0.04708619 0.029979711 0.03172143 -0.304662
-0.051047437 -0.04607449 -0.05950586 -0.041783597 -0.023883825 -0.08130185 0.072148204 -0.019078298
0.11177704 -0.027457725 0.10427771 0.039677978 0.013026662 -0.13236625 -0.2862425 0.0936634
-0.106201716 -0.00078415783 -0.17325798 0.06257422 0.046700332 0.011820739 -0.04746193 0.029616578
0.041511465 -0.17141798 0.09393023 0.023579037 -0.0023182447 -0.12075194 -0.2066866 0.14254166
-0.014860963 -0.0007158775 -0.09627095 -0.025956605 0.028685851 -0.025661768 0.13340265 -0.28656867
-0.092316546 -0.08481024 0.040337108 -0.024512732 -0.07911288 -0.038615145 0.025786055 0.15485649
-0.041100327 0.03559709 -0.08846382 -0.021965582 -0.08725029 0.23143913 0.06602601 -0.08097359
-0.12517297 -0.08274037 -0.23421751 -0.087011136 0.12926167 0.07389302 0.12894729 -0.14100651
-0.106740184 -0.24405089 -0.009517696 -0.061941236 0.028942477 -0.24769346 -0.34840947 -0.35258675
0.09048922 0.015676018 -0.16679345 0.03193076 0.11183312 -0.053119216 -0.0018987273 0.0901754
0.095646255 -0.13347416 -0.25538018 0.064107776 -0.088893875 -0.24433091 0.02655308 0.13388334
0.08090743 -0.18270536 -0.23478119 -0.1176977 0.07125894 -0.15892157 -0.24592632 -0.1401584
0.027125755 -0.053333685 -0.13127455 0.10005201 -0.13117872 -0.2122753 0.11401793 -0.1336331
0.073377326 0.04954569 -0.02382591 -0.17415898 0.055917613 0.14001982 -0.10420996 -0.13913238
0.088322476 0.10470248 -0.04086727 0.06330458 -0.029194087 -0.19172029 -0.058612194 -0.06851987
0.023933312 -0.048167326 -0.16326632 -0.27866167 -0.33917475 0.10847825 -0.058319718 -0.09560271
0.019911453 0.1457815 -0.038425483 0.001311582 0.049448054 0.18115103 -0.06054772 -0.096547335
0.04353501 -0.050310437 -0.056595843 0.009038829 0.065229 -0.08404331 -0.03781341 0.11425027
-0.05865983 0.061840564 -0.017614732 -0.06581142 0.14805065 -0.042364124 0.032365255 0.14503814
-0.10454307 -0.0071520503 -0.20789957 -0.06802016 0.14071351 -0.0072039287 0.021020954 -0.13542056
-0.18111996 -0.16893868 -0.02656854 -0.0017436204 -0.14624709 -0.05253154 0.06871337 0.03898489
0.053711694 -0.15825689 -0.065059364 -0.056126945 0.025279002 -0.038705796 0.12447299 -0.066763215
0.06283189 0.09924657 -0.027973529 0.105079316 -0.026132135 -0.043243542 -0.12560545 0.08265221
0.07449269 -0.009387766 -0.16605385 -0.07529588 -0.024151843 0.01678093 -0.1976116 -0.06326538
0.038760666 0.15965506 0.13123251 0.023824714 -0.079657815 -0.31072423 0.024753598 -0.07576824
0.050413355 0.094192095 -0.0006488126 0.10542668 -0.042415958 0.03056362 0.01501055 -0.26571226
-0.06956598 -0.07551398 0.018383931 -0.25038457 0.11637472 0.07008964 0.0938269 0.122419976
0.005601923 0.096009105 -0.047488485 -0.15384935 -0.34099227 0.0485533 -0.02876342 0.13781601
0.0019599868 -0.004784915 0.1630572 -0.00090283 -0.035924863 -0.017279949 0.078474134 0.07631364
00000000: b562 233d 716f 47bc 0401 4dbe af9e 843d
00000010: d682 b1bd ca16 1c3b c52c 1abe d6d1 c53c
00000020: efff 81be 6c0d 88bd 1ee3 21bd c51f 9a3d
00000030: defe 5c3d 75b5 d3bd a382 90bd 0e24 ec3c
00000040: b862 f63c 5c88 fc3d 7a6a 9fbc 7a4e 0bbd
00000050: 73dd 403d 0398 f53c 55ee 013d a8fc 9bbe
00000060: 1e17 51bd 9bb8 3cbd 6bbc 73bd 4725 2bbd
00000070: 03a8 c3bc 9681 a6bd 70c2 933d 174a 9cbc
00000080: 5ceb e43d 06ef e0bc 8d8f d53d 6085 223d
00000090: c86d 553c 058b 07be 618e 92be 99d2 bf3d
000000a0: 4980 d9bd f18f 4dba 8a6a 31be ea26 803d
000000b0: d948 3f3d c6ab 413c 7167 42bd 779e f23c
000000c0: ed07 2a3d 3288 2fbe 7e5e c03d d328 c13c
000000d0: b1ed 17bb cb4c f7bd a7a5 53be 71f6 113e
000000e0: 667b 73bc baa9 3bba b429 c5bd f2a2 d4bc
000000f0: 97fe ea3c a138 d2bc b49a 083e 21b9 92be
00000100: 7510 bdbd feb0 adbd 8638 253d edce c8bc
00000110: ef05 a2bd ea2a 1ebd 473d d33c b392 1e3e
00000120: d158 28bd 41ce 113d 852c b5bd 2af1 b3bc
00000130: 48b0 b2bd 61fe 6c3e a538 873d 7bd5 a5bd
00000140: 582d 00be c873 a9bd b7d6 6fbe e532 b2bd
00000150: 2c5d 043e 3955 973d c20a 043e 0364 10be
00000160: 999a dabd 7ae8 79be 1cf0 1bbc 18b6 7dbd
00000170: c618 ed3c 5ba3 7dbe ba62 b2be 4086 b4be
00000180: 6a52 b93d fe6a 803c e7cb 2abe d4c9 023d
00000190: c308 e53d 8993 59bd b7de f8ba e1ad b83d
000001a0: 2fe2 c33d 73ad 08be 31c1 82be f04a 833d
000001b0: fe0d b6bd e231 7abe d885 d93c b718 093e
000001c0: cbb2 a53d 1d17 3bbe 7b6a 70be 7e0b f1bd
000001d0: 35f0 913d 56bc 22be 1cd4 7bbe af85 0fbe
000001e0: d536 de3c 6c74 5abd d66c 06be 11e8 cc3d
000001f0: b753 06be b25e 59be 3c82 e93d 1ed7 08be
00000200: da46 963d 6cf0 4a3d 8e2e c3bc bb56 32be
00000210: de09 653d 5b61 0f3e 086c d5bd b878 0ebe
00000220: 6ae2 b43d 416e d63d 7064 27bd d5a5 813d
00000230: 7028 efbc 5352 44be 5713 70bd 2554 8cbd
00000240: cb0f c43c 1a4b 45bd 492f 27be beac 8ebe
00000250: 50a8 adbe d829 de3d a8e0 6ebd 5bcb c3bd
00000260: 581d a33c bf47 153e 0a64 1dbd 64e9 ab3a
00000270: 0b8a 4a3d a87f 393e e300 78bd 9cba c5bd
00000280: c451 323d 5112 4ebd 0bd1 67bd 9917 143c
00000290: c896 853d e61e acbd 3ce2 1abd 0cfc e93d
000002a0: 4a45 70bd 884c 7d3d c54c 90bc 23c8 86bd
000002b0: 979a 173e 0186 2dbd 6e91 043d e184 143e
000002c0: ad1a d6bd bf5b eabb a0e3 54be 274e 8bbd
000002d0: 3417 103e ef0e ecbb 2334 ac3c b0ab 0abe
000002e0: 8377 39be 43fe 2cbe 44a6 d9bc 318a e4ba
000002f0: ccc1 15be 502b 57bd 98b9 8c3d 9fae 1f3d
00000300: cb00 5c3d 180e 22be d83d 85bd 5ee5 65bd
00000310: e915 cf3c f889 1ebd b2eb fe3d 27bb 88bd
00000320: 02ae 803d c941 cb3d be28 e5bc d333 d73d
00000330: 0f13 d6bc 2420 31bd b79e 00be 9045 a93d
00000340: a08f 983d 25cf 19bc 050a 2abe ba34 9abd
00000350: 16da c5bc 2978 893c b25a 4abe 4891 81bd
00000360: 81c3 1e3d 9e7c 233e d161 063e 0c2c c33c
00000370: a323 a3bd 3f17 9fbe 0fc8 ca3c 612c 9bbd
00000380: 3c7e 4e3d c9e7 c03d 1415 2aba f1e9 d73d
00000390: 5bbc 2dbd 8f60 fa3c cfee 753c 700b 88be
000003a0: 9c78 8ebd 13a7 9abd e699 963c 6832 80be
000003b0: df55 ee3d 288b 8f3d 5128 c03d 53b7 fa3d
000003c0: 5690 b73b 6ca0 c43d 4983 42bd af8a 1dbe
000003d0: 8a96 aebe d3df 463d 44a1 ebbc a41f 0d3e
000003e0: 1f73 003b c7ca 9cbb 77f8 263e e5ab 6cba
000003f0: f325 13bd ae8e 8dbc 0cb7 a03d 534a 9c3d

actor.4.bias f4 [128]
-0.0720398 -0.15086086 -0.10623337 -0.15405956 -0.115314834 -0.06589367 0.012652233 -0.05718722
-0.16280106 -0.086808756 -0.16319971 -0.028744055 0.012544513 -0.1786178 -0.0882045 -0.2151672
-0.09818199 -0.19542262 -0.013079141 -0.14544089 -0.023701914 -0.1451844 -0.12661706 -0.013546735
-0.02684421 -0.12065332 -0.1556805 0.005499677 -0.06732126 -0.043496903 -0.031929243 -0.122958556
-0.14375538 -0.047292758 -0.1015141 -0.21401879 0.05631887 -0.074511856 -0.033548586 -0.14713134
-0.067083985 -0.07869562 -0.02857855 -0.21728714 -0.1877473 -0.015868744 -0.11355729 -0.053563815
-0.06500673 -0.104579 -0.054340698 -0.13485272 -0.20886287 -0.17320973 0.009918485 -0.044713497
-0.109448224 -0.0965286 -0.18705373 -0.09741115 -0.090017416 -0.130032 -0.116728775 -0.15801622
-0.12757748 -0.0748011 -0.15921758 -0.08486359 -0.014390918 -0.16754933 -0.14853404 -0.0016461337
-0.13229279 -0.026085207 -0.048128545 -0.091824725 -0.08172615 -0.18144536 -0.09372978 -0.18208914
0.021216096 -0.1303924 -0.08473039 -0.10374199 0.016468834 -0.03583329 -0.07731439 -0.16160494
-0.05205431 -0.19447401 0.036344633 -0.0831327 -0.043140262 -0.16283938 -0.13033092 -0.044108856
-0.006910709 -0.0076625133 -0.068395056 -0.09842158 -0.048553918 -0.102111384 -0.08065837 -0.23281509
-0.13003819 -0.21758887 -0.052174415 -0.091356814 -0.1057916 -0.026118422 -0.13710117 -0.02141803
-0.11175429 -0.086426176 -0.035505295 0.0076046297 -0.13375396 -0.07980691 -0.18730555 -0.037191134
-0.13638934 -0.04362119 -0.08818293 -0.16161674 0.0011932012 -0.0020828566 -0.10749195 -0.08112472
00000000: 9a89 93bd 457b 1abe e290 d9bd cac1 1dbe
00000010: 2f2a ecbd 43f3 86bd 504b 4f3c 253d 6abd
00000020: 52b5 26be cac8 b1bd d31d 27be a778 ebbc
00000030: 8087 4d3c 96e7 36be 90a4 b4bd ca54 5cbe
00000040: a413 c9bd de1c 48be e549 56bc 75ee 14be
00000050: 842a c2bc 38ab 14be e7a7 01be 20f3 5dbc
00000060: 64e8 dbbc 1619 f7bd b66a 1fbe a236 b43b
00000070: bbdf 89bd cf29 32bd 3dc8 02bd b2d1 fbbd
00000080: 9c34 13be 0db6 41bd a0e6 cfbd be27 5bbe
00000090: 9eae 663d ac99 98bd 3e6a 09bd 99a9 16be
000000a0: 5463 89bd 2b2b a1bd 901d eabc 8580 5ebe
000000b0: d440 40be 2bff 81bc b990 e8bd bb65 5bbd
000000c0: 4022 85bd 842d d6bd 5a94 5ebd d516 0abe
000000d0: 26e0 55be e45d 31be 2481 223c 8025 37bd
000000e0: 6426 e0bd c9b0 c5bd 038b 3fbe 7f7f c7bd
000000f0: 0d5b b8bd 1c27 05be 7f0f efbd 01cf 21be
00000100: aca3 02be 5231 99bd ef09 23be f6cc adbd
00000110: e3c7 6bbc 0d92 2bbe 4f19 18be 15c3 d7ba
00000120: c377 07be a5b0 d5bc 7022 45bd 9a0e bcbd
00000130: 0a60 a7bd d0cc 39be 66f5 bfbd 9375 3abe
00000140: 61cd ad3c 9685 05be 2087 adbd ae76 d4bd
00000150: a6e9 863c eec5 12bd 0257 9ebd c47b 25be
00000160: e636 55bd 3224 47be 1cde 143d 7a41 aabd
00000170: d8b3 30bd 5ebf 26be 7875 05be 7dab 34bd
00000180: 3b73 e2bb d215 fbbb b512 8cbd 4191 c9bd
00000190: 79e0 46bd c61f d1bd 3730 a5bd 1467 6ebe
000001a0: bb28 05be 9ecf 5ebe d7b4 55bd 4819 bbbd
000001b0: 44a9 d8bd 4df6 d5bc 4064 0cbe dd74 afbc
000001c0: 6fdf e4bd 3500 b1bd 006e 11bd 4230 f93b
000001d0: ccf6 08be ce71 a3bd 07cd 3fbe bb55 18bd
000001e0: a6a9 0bbe 22ac 32bd 4199 b4bd dc7e 25be
000001f0: 3065 9c3a 8980 08bb bd24 dcbd b824 a6bd

actor.6.weight f4 [12, 128]
-0.088705905 0.070813045 -0.031666134 0.051440656 0.07582545 -0.102164514 -0.050377928 0.08926326
-0.0035290206 -0.069811426 0.065685324 -0.07630407 -0.012539506 -0.032118615 -0.18320487 0.039466143
-0.02510102 0.07416898 -0.15145624 0.0077077127 -0.038593143 0.023549112 -0.0898339 -0.045457356
-0.02359734 -0.01928351 -0.005919904 -0.08573925 -0.04969875 -0.06646699 0.0013137988 -0.027402375
0.03703546 -0.046540562 0.035833072 0.028766245 -0.04832299 -0.01133756 -0.094735526 0.027018167
0.05286938 -0.07802661 0.011365076 -0.0073161675 0.064477 0.051980916 0.10818676 -0.066436455
-0.035180476 0.24186738 -0.015977172 0.007897605 -0.03266889 0.009561868 0.35124955 0.070792384
-0.10278383 0.041819192 0.05676079 -0.11104372 -0.065407306 -0.044130858 -0.028596317 0.08323397
0.041650016 0.037809007 0.05752418 0.11298948 -0.10701918 0.050017938 -0.025236137 -0.06859674
-0.10339889 0.109107666 0.021181542 -0.07745357 -0.041880436 -0.018016657 0.06702815 -0.03900288
-0.05664862 0.030702688 -0.069662906 -0.067320116 0.018125374 -0.020645889 0.094914764 -0.030611241
0.08468133 0.19743064 -0.016616922 0.010805659 -0.0919146 0.016863713 -0.022272302 0.04392467
-0.0033711344 0.016817465 0.15705085 0.029376818 0.16986197 -0.051183242 -0.09030425 -0.06837638
-0.1266505 -0.03883187 -0.06525573 0.0026693076 -0.03215909 -0.11441501 -0.063818924 -0.12918606
-0.12020449 -0.039814197 0.043904494 -0.15494056 0.048902918 0.029684488 -0.118362255 -0.14860936
0.06814331 0.008882354 0.0017518334 0.14228323 0.13478291 0.10921483 0.0062870616 -0.06931764
0.07670839 0.0029337108 -0.0387385 0.05241169 -0.02179275 0.13632974 0.13221855 0.005463621
0.015179267 -0.055764813 0.03869543 -0.06031671 0.10145687 -0.1102683 0.048144635 -0.16213311
-0.012203474 -0.03273246 -0.2050863 0.076436594 -0.058189698 -0.026050208 -0.0029453463 0.0006795897
0.06731001 -0.019874461 0.07447659 0.003949219 -0.079376675 0.016210433 0.028532535 -0.18961018
0.024417946 0.05441761 -0.03463132 -0.11044345 0.007496693 -0.038385894 0.05734225 0.0695531
-0.14638162 0.035869405 0.06874533 -0.040100146 -0.00038755435 0.039093178 -0.027209396 0.01830146
-0.046455443 0.1048931 0.047577173 0.016704587 0.061708603 -0.05447512 -0.0037494656 -0.036853634
0.0751598 0.08853178 -0.06710548 -0.052126996 -0.067316666 0.008060421 0.19341691 -0.002709162
-0.07035994 -0.06113981 0.088118665 -0.04621993 0.088543214 0.0053667584 0.0847355 0.044959404
0.0074556973 -0.0037088634 0.03847361 0.01074591 0.041886646 -0.05584376 -0.019895578 0.008796214
0.06547686 0.06333256 -0.055635985 -0.0255212 0.13014638 0.023135908 -0.040229212 -0.074933626
-0.0024538483 -0.014854179 0.03453265 0.028917627 -0.0069271238 -0.0017679646 -0.10956795 -0.060923357
-0.030547636 -0.029591326 -0.10157879 -0.08699229 0.018730853 -0.011455301 0.062153097 -0.012692106
-0.07520163 0.005473613 -0.02066665 0.004636199 0.03321937 -0.07129834 0.10273467 0.042060554
0.01706889 0.007849493 -0.011227857 0.017692154 0.051127847 0.004345635 -0.03903662 0.096061714
0.042664714 0.031182185 -0.039225392 0.0973332 -0.028889686 0.23265924 -0.04041149 0.024849925
00000000: 71ab b5bd 6e06 913d 59b4 01bd 70b3 523d
00000010: 604a 9b3d a13b d1bd 1659 4ebd a8cf b63d
00000020: 2447 67bb 4bf9 8ebd 0786 863d 4f45 9cbd
00000030: 8072 4dbc cf8e 03bd 0f9a 3bbe 40a7 213d
00000040: a7a0 cdbc e8e5 973d 5817 1bbe fb90 fc3b
00000050: d813 1ebd 11ea c03c d6fa b7bd 7e31 3abd
00000060: 354f c1bc 74f8 9dbc c1fb c1bb 0f98 afbd
00000070: eb90 4bbd d81f 88bd c633 ac3a f27a e0bc
00000080: 7fb2 173d 51a1 3ebd b3c5 123d 30a7 eb3c
00000090: 54ee 45bd 2cc1 39bc b304 c2bd 3455 dd3c
000000a0: 908d 583d 6acc 9fbd 9534 3a3c 76bc efbb
000000b0: 840c 843d f1e9 543d 0591 dd3d d60f 88bd
000000c0: 6719 10bd 15ac 773e 8fe2 82bc f564 013c
000000d0: d0cf 05bd 62a9 1c3c fbd6 b33e 99fb 903d
000000e0: 5480 d2bd 9a4a 2b3d 017e 683d e46a e3bd
000000f0: 44f4 85bd 8fc2 34bd d342 eabc 9276 aa3d
00000100: 3599 2a3d 9edd 1a3d 799e 6b3d 0767 e73d
00000110: df2c dbbd 9cdf 4c3d 04bc cebc 737c 8cbd
00000120: ccc2 d3bd d773 df3d ea84 ad3c fa9f 9ebd
00000130: d28a 2bbd ab97 93bc 0e46 893d 7cc1 1fbd
00000140: 6208 68bd 3484 fb3c 6dab 8ebd 21df 89bd
00000150: aa7b 943c 9121 a9bc ac62 c23d 6dc4 fabc
00000160: 686d ad3d 422b 4a3e 3620 88bc 380a 313c
00000170: b93d bcbd c525 8a3c 6774 b6bc 5bea 333d
00000180: 40ee 5cbb c8c4 893c f0d1 203e a7a7 f03c
00000190: 4cf0 2d3e 85a5 51bd 6ff1 b8bd ea08 8cbd
000001a0: abb0 01be 2b0e 1fbd cca4 85bd 8def 2e3b
000001b0: 40b9 03bd 6b52 eabd 7fb3 82bd 5a49 04be
000001c0: c62d f6bd 3614 23bd 33d5 333d bda8 1ebe
000001d0: 6d4e 483d e22c f33c e967 f2bd 0d2d 18be
000001e0: b88e 8b3d 4b87 113c c69d e53a b2b2 113e
000001f0: 8804 0a3e 06ac df3d b203 ce3b 68f6 8dbd
00000200: 4a19 9d3d 8043 403b 43ac 1ebd a4ad 563d
00000210: b686 b2bc 069a 0b3e 4d64 073e 2d08 b33b
00000220: 76b2 783c a569 64bd 197f 1e3d a80e 77bd
00000230: 9fc8 cf3d 59d4 e1bd 4f33 453d 3906 26be
00000240: 14f1 47bc 7912 06bd 2502 52be ca8a 9c3d
00000250: 5258 6ebd 3f67 d5bc b606 41bb 7e26 323a
00000260: d5d9 893d c4cf a2bc 2f87 983d 7368 813b
00000270: 3d90 a2bd becb 843c 10bd e93c 2c29 42be
00000280: 2508 c83c 00e5 5e3d 92d9 0dbd 2d30 e2bd
00000290: d2a6 f53b 873a 1dbd b5df 6a3d db71 8e3d
000002a0: 10e5 15be cceb 123d 5aca 8c3d 0d40 24bd
000002b0: aa30 cbb9 2b20 203d 3de6 debc f2ec 953c
000002c0: 1048 3ebd 32d2 d63d 48e0 423d 0fd8 883c
000002d0: 29c2 7c3d 4e21 5fbd 98b9 75bb d6f3 16bd
000002e0: 62ed 993d 2650 b53d 996e 89bd 1e83 55bd
000002f0: 52dd 89bd db0f 043c 150f 463e 328c 31bb
00000300: df18 90bd bd6d 7abd 8f77 b43d 1c51 3dbd
00000310: 2556 b53d a2db af3b ce89 ad3d 5a27 383d
00000320: ec4e f43b 6710 73bb 8196 1d3d 9d0f 303c
00000330: 5591 2b3d 6dbc 64bd 0dfc a2bc ff1d 103c
00000340: bb18 863d 80b4 813d 8fe2 63bd d611 d1bc
00000350: 1845 053e 8487 bd3c 63c7 24bd cd76 99bd
00000360: bed0 20bb f15e 73bc 1c72 0d3d a9e4 ec3c
00000370: edfc e2bb 0cbb e7ba 2965 e0bd c58a 79bd
00000380: 093f fabc 8269 f2bc 8a08 d0bd 0429 b2bd
00000390: 7271 993c 04af 3bbc 3f94 7e3d 8df2 4fbc
000003a0: 5003 9abd fe5b b33b 1b4d a9bc 42eb 973b
000003b0: 0911 083d dd04 92bd 8e66 d23d b047 2c3d
000003c0: 0fd4 8b3c 299b 003c 0cf5 37bc 23ef 903c
000003d0: 6f6b 513d d465 8e3b dde4 1fbd 01bc c43d
000003e0: 32c1 2e3d c871 ff3c ceaa 20bd a156 c73d
000003f0: 10aa ecbc 393e 6e3e 8586 25bd 1292 cb3c

actor.6.bias f4 [12]
0.089023165 0.042442482 -0.010941104 0.13207808 0.037516184 -0.058733936 0.030651765 0.06831728
-0.016933156 0.083882794 0.027252475 -0.030331668
00000000: c751 b63d 2bd8 2d3d 5142 33bc 7a3f 073e
00000010: 92aa 193d ff92 70bd 6919 fb3c eee9 8b3d
00000020: 67b7 8abc beca ab3d 9540 df3c 1e7a f8bc
