logs/rsl_rl/unitree_a1_flat/2025-03-20_23-24-28/exported/policy.onnx (onnx, 764693 bytes, 8 tensors)

actor.0.weight f4 [512, 48]
0.24014494 0.20592625 0.054856192 0.53715575 -0.5365274 0.120526485 0.3019623 -0.114156425
0.19581604 -0.19535397 0.19247538 0.33492512 0.13112056 0.4620127 0.031476356 -0.15257935
-0.08344812 0.07558407 -0.030056657 -0.15356308 0.10790266 0.123873435 0.16853394 0.00822928
-0.26253486 0.076697215 0.109973 0.36342552 0.27905127 0.0044763777 0.042043895 0.16905034
0.07160787 0.11729447 -0.010690271 0.04658771 0.072353095 0.004619669 -0.10116567 0.07221122
-0.062443543 -0.02489197 -0.069999255 -0.09869694 0.003678775 -0.050196905 -0.004535221 0.060390726
0.014007976 -0.24874112 -0.47816202 0.1925853 -0.3906751 0.28136045 0.21053863 0.010302511
0.102751754 -0.31794032 0.26540306 0.67918175 0.301005 0.24915503 0.064719036 -0.048817284
-0.062124267 0.018660257 -0.14683276 -0.15434879 -0.26511663 0.16281915 -0.23093876 -0.0003146695
0.02228402 -0.22362192 -0.08584892 0.399957 -0.016426448 -0.04185734 0.015531504 -0.028110761
-0.092440434 0.018486915 -0.09437401 -0.044261042 -0.02771241 0.02434305 0.18105035 0.09995
-0.09466496 -0.0345909 0.24848056 -0.15876272 -0.051674165 0.0031108102 -0.025686191 0.020198027
-0.15819606 -0.056212123 -0.027304834 -0.11994742 -0.6064036 0.040518828 0.07914027 -0.10557216
0.16614828 0.35939154 0.06929465 -0.08432645 0.19304806 0.10632092 0.41123793 -0.35155404
0.4366896 0.19926026 -0.03908957 0.14499627 -0.03405892 0.2164323 0.042155456 -0.23997755
0.035466813 0.02081897 0.034795884 -0.12748905 0.21519826 0.27838376 -0.0078088394 -0.012218088
-0.09060198 0.03251139 -0.117375895 -0.01848566 0.03239262 0.060810532 -0.009284414 0.030273829
0.07656801 0.032001987 -0.015254657 -0.104541965 -0.21795957 0.035040647 0.026343288 -0.038121544
0.24967255 0.24102364 0.4456893 0.12691909 -0.17599353 -0.32797837 -0.20169705 0.012105644
-0.4479655 -0.032164194 -0.113879904 -0.45773742 0.16339308 0.031304117 -0.3197609 -0.30953732
0.4954304 -0.01087361 0.46813077 0.21330206 0.12202403 0.53246593 0.07625329 -0.2635739
0.0901815 -0.051876903 0.035609394 -0.08248519 0.35838607 0.05814981 -0.0070502153 -0.075923234
0.061217975 -0.034725655 -0.07028138 0.049751572 -0.066245876 0.06754438 -0.06277236 -0.00045301745
-0.080762275 -0.0117851915 -0.06794332 0.019291278 -0.11474316 0.036661144 0.025870144 -0.01526969
-0.03631068 0.083484784 -0.08318427 0.18866388 0.58622855 0.14198844 0.37302354 -0.004846639
-0.07969613 -0.22232252 -0.173658 -0.38582402 -0.09210441 0.22761379 0.10188843 -0.31404793
-0.25143576 -0.028126338 0.042366654 -0.016145926 0.09300684 -0.030887088 -0.00995388 0.2705237
0.019605909 0.20097722 0.031241344 -0.403686 -0.087512866 -0.066513896 -0.07914097 -0.10006682
0.010305512 -0.058746982 0.022027172 0.09460949 0.060604867 -0.017738514 -0.14264476 -0.02784135
-0.16590728 0.02017416 0.19504459 -0.1650983 0.081156835 -0.033422954 0.0923262 0.021252781
-0.018102678 -0.53795505 -0.36046842 -0.6448509 0.042720053 -0.14165713 0.28801855 -0.04049873
0.029503658 0.058131304 0.033588998 -0.23406138 0.124833144 -0.14602023 -0.20906958 -0.042387705
00000000: 8ee8 753e 55de 523e e3b0 603d 0a83 093f
00000010: dc59 09bf 97d6 f63d cd9a 9a3e d8ca e9bd
00000020: 0084 483e df0a 48be 4418 453e 4e7b ab3e
00000030: 7844 063e ee8c ec3e 5aed 003d c33d 1cbe
00000040: d9e6 aabd d2cb 9a3d 6139 f6bc a43f 1dbe
00000050: 12fc dc3d 5bb1 fd3d 2994 2c3e 1ad4 063c
00000060: f86a 86be 6e13 9d3d 8639 e13d e912 ba3e
00000070: cfdf 8e3e 94ae 923b 3836 2c3d 881b 2d3e
00000080: 26a7 923d 1538 f03d 3f26 2fbc c1d2 3e3d
00000090: dc2d 943d 9860 973b f22f cfbd 7ae3 933d
000000a0: cdc4 7fbd 3fea cbbc c55b 8fbd 9f21 cabd
000000b0: 9a17 713b 459b 4dbd 319c 94bb 445c 773d
000000c0: b681 653c feb5 7ebe a7d1 f4be 1535 453e
000000d0: 9106 c8be 7a0e 903e 7097 573e ddcb 283c
000000e0: 836f d23d 13c9 a2be e9e2 873e dbde 2d3f
000000f0: 541d 9a3e 7f22 7f3e 6a8b 843d a2f4 47bd
00000100: 0476 7ebd 65dd 983c 545b 16be 9c0d 1ebe
00000110: 5ebd 87be 10ba 263e 367b 6cbe 3afa a4b9
00000120: fa8c b63c 25fd 64be 8fd1 afbd 2ac7 cc3e
00000130: c290 86bc 9a72 2bbd d977 7e3c 8a48 e6bc
00000140: 6951 bdbd df71 973c 2947 c1bd 114b 35bd
00000150: 2305 e3bc 136b c73c 4365 393e 96b2 cc3d
00000160: b4df c1bd 30af 0dbd b071 7e3e b292 22be
00000170: 4aa8 53bd bcde 4b3b d96b d2bc 5576 a53c
00000180: 26fe 21be af3e 66bd 63ae dfbc fea6 f5bd
00000190: 443d 1bbf 12f7 253d 4b14 a23d 3736 d8bd
000001a0: c622 2a3e 2b02 b83e 5aea 8d3d 59b3 acbd
000001b0: 64ae 453e c8be d93d c78d d23e e4fe b3be
000001c0: c795 df3e e20a 4c3e 631c 20bd e779 143e
000001d0: 5e81 0bbd 6ea0 5d3e 33ab 2c3d adbc 75be
000001e0: a645 113d 8b8c aa3c 2186 0e3d 7d8c 02be
000001f0: ef5c 5c3e 5188 8e3e 4be1 ffbb 602e 48bc
00000200: 888d b9bd aa2a 053d c662 f0bd 3d6f 97bc
00000210: 20ae 043d 7714 793d a81d 18bc d200 f83c
00000220: b0cf 9c3d 8414 033d abee 79bc 191a d6bd
00000230: cb30 5fbe c886 0f3d e1cd d73c 5625 1cbd
00000240: 29aa 7f3e e7ce 763e 6331 e43e 14f7 013e
00000250: a637 34be c8ec a7be ac89 4ebe c056 463c
00000260: bc5b e5be 9abe 03bd de39 e9bd 8f5c eabe
00000270: 8450 273e bf38 003d b3b7 a3be ad7b 9ebe
00000280: 0ea9 fd3e 3a27 32bc d6ae ef3e db6b 5a3e
00000290: bce7 f93d b04f 083f af2a 9c3d 29f3 86be
000002a0: 14b1 b83d e07c 54bd 28db 113d ffed a8bd
000002b0: 617e b73e 7f2e 6e3d 7e05 e7bb a47d 9bbd
000002c0: b3bf 7a3d 7d3c 0ebd afef 8fbd 4ec8 4b3d
000002d0: ebab 87bd b554 8a3d cc8e 80bd f982 edb9
000002e0: b166 a5bd ad16 41bc de25 8bbd be08 9e3c
000002f0: 76fe eabd ff29 163d a0ed d33c b92d 7abc
00000300: 82ba 14bd 12fa aa3d 845c aabd 1b31 413e
00000310: 1313 163f 6b65 113e f1fc be3e 8ed0 9ebb
00000320: b937 a3bd 84a8 63be 67d3 31be ba8a c5be
00000330: 3da1 bcbd 9713 693e e2aa d03d e4ca a0be
00000340: 30bc 80be 3569 e6bc a888 2d3d 7644 84bc
00000350: 5f7a be3d eb06 fdbc 9915 23bc 1582 8a3e
00000360: 929c a03c f9cc 4d3e d9ed ff3c eeaf cebe
00000370: f239 b3bd 7038 88bd a914 a2bd d5ef ccbd
00000380: 73d8 283c ada0 70bd 5472 b43c 9fc2 c13d
00000390: cf3c 783d 5c50 91bc 7811 12be 8b13 e4bc
000003a0: 99e3 29be 4844 a53c c5b9 473e 870f 29be
000003b0: 8e35 a63d 82e6 08bd 8515 bd3d 501a ae3c
000003c0: 114c 94bc 6cb7 09bf 518f b8be f314 25bf
000003d0: 39fb 2e3d 910e 11be 2b77 933e ffe1 25bd
000003e0: a8b1 f13c 171b 6e3d 9e94 093d c9ad 6fbe
000003f0: 85a8 ff3d 5486 15be 5616 56be bb9e 2dbd

actor.0.bias f4 [512]
0.132075 -0.25185135 0.106167406 -0.058666322 -0.09968315 0.016808785 -0.14321701 0.011415276
-0.017614238 0.16129324 0.0977995 -0.021527182 -0.17500162 -0.20710076 0.017791044 -0.0149465855
-0.09995937 -0.14757785 0.17704645 0.09755738 0.09203416 0.1749426 0.11374073 -0.012467601
0.05466927 0.017905131 0.2191112 0.22949755 -0.159163 0.007216838 -0.17608348 0.019266225
0.15428147 -0.048266962 -0.00045267338 -0.09005562 -0.041026205 -0.11261146 -0.16213723 0.072584525
-0.090155855 -0.08403892 -0.21634676 -0.04788826 0.11709494 0.06677115 -0.029868186 -0.0916297
-0.12151869 0.074649096 0.10154993 -0.085928984 0.033575952 0.09678812 -0.047974184 0.026841598
-0.078673296 -0.0064797536 -0.035618216 0.02584587 -0.07433732 -0.13478757 -0.06915705 -0.023828462
0.21063453 0.16595244 -0.15457581 -0.148899 -0.1515926 0.05896275 0.05635952 0.09853975
0.06993368 -0.041765567 0.04961809 -0.03511807 -0.06801213 0.0069730203 -0.12843831 0.14832965
-0.06725719 0.18265557 -0.07559308 0.05597221 0.16382334 -0.119548485 0.10690614 -0.096079744
-0.03894798 0.076743476 0.01363646 -0.20705701 -0.12643719 -0.0832495 -0.10025229 0.15466186
0.08748233 -0.0042988975 0.0086029945 0.07439364 -0.14740844 0.011184807 0.04099889 -0.2218041
0.017948948 -0.16055462 0.027713152 0.08785605 -0.078748345 0.082579374 -0.08856719 -0.18719396
-0.039590716 0.13415483 -0.1589968 -0.0197623 0.1423185 0.14704645 -0.07720024 -0.19755724
-0.1885768 -0.0663835 -0.13526952 -0.24717206 0.06168019 -0.028747372 0.11260705 -0.21016978
0.0984988 0.09725275 -0.13833018 0.120891295 -0.051610835 -0.20814976 -0.20212105 0.002923653
0.056365777 0.016069168 -0.09920649 -0.12119372 0.028693287 -0.010807049 -0.09974335 -0.14034851
0.13372715 0.02548782 0.07454471 -0.047531404 0.113357246 0.051607743 0.011200213 0.114762895
0.117671825 -0.15051006 -0.100693434 -0.16418809 -0.057917066 -0.11804631 0.14966977 0.062464837
-0.15695299 0.019286988 -0.17067935 -0.022258636 0.13370366 -0.04038211 0.13101128 -0.16111207
-0.04937589 0.05895946 0.091853194 -0.05219122 -0.028326381 -0.06115283 -0.17056575 0.036470283
-0.016877329 0.016617583 0.031446215 0.12750892 0.034185093 -0.1564421 -0.13123296 0.051585693
-0.051754337 0.008153911 0.13421002 0.17682622 0.12204524 -0.17658618 0.0075133867 -0.110213935
-0.014004375 -0.0059830206 0.004144081 -0.16143128 -0.070515096 0.011465876 -0.21702975 0.069697015
0.10102469 -0.09933372 0.1375294 0.12841609 -0.079903185 0.1254228 -0.12327123 -0.035719085
-0.10834037 0.17942473 0.019987129 -0.10813064 0.09562187 -0.048283994 0.03394457 -0.07696585
-0.090083644 -0.010825663 -0.16362274 -0.03620423 0.040684614 -0.0031308574 0.0626071 0.114381075
-0.0040830323 0.17222719 0.023865785 0.101971835 -0.20866619 0.022769734 -0.15916453 0.10745604
-0.08119818 0.15951034 0.02117982 -0.1795762 -0.02688413 0.12164202 0.0896171 -0.102073684
0.08127617 -0.09029833 -0.03761541 -0.025249727 0.06036155 0.07790206 0.058773585 0.1927695
-0.026858766 -0.06925844 0.11989576 0.11606063 0.07487449 -0.12543601 0.13236144 0.031451445
00000000: ab3e 073e a9f2 80be 4c6e d93d 194c 70bd
00000010: ae26 ccbd 94b2 893c 7ba7 12be 2307 3b3c
00000020: bc4b 90bc 0e2a 253e 1b4b c83d c659 b0bc
00000030: a033 33be 3912 54be 86be 913c 86e2 74bc
00000040: 80b7 ccbd a61e 17be aa4b 353e 2acc c73d
00000050: 687c bc3d 2724 333e e6f0 e83d e944 4cbc
00000060: e2ec 5f3d c8ad 923c b05e 603e 6801 6b3e
00000070: a0fb 22be 3a7b ec3b 3a4f 34be 34d4 9d3c
00000080: f6fb 1d3e 94b3 45bd cb54 edb9 156f b8bd
00000090: 180b 28bd d6a0 e6bd 4d07 26be 32a7 943d
000000a0: a2a3 b8bd 991c acbd 018a 5dbe 7b26 44bd
000000b0: 79cf ef3d 50bf 883d 20ae f4bc 5aa8 bbbd
000000c0: cade f8bd a0e1 983d 69f9 cf3d 89fb afbd
000000d0: f086 093d da38 c63d 9480 44bd e9e2 db3c
000000e0: 771f a1bd 1d54 d4bb 68e4 11bd b8ba d33c
000000f0: 2a3e 98bd c105 0abe 36a2 8dbd e833 c3bc
00000100: 94b0 573e 70ef 293e 1f49 1ebe fb78 18be
00000110: 173b 1bbe ed82 713d 3dd9 663d 35cf c93d
00000120: 6439 8f3d 5f12 2bbd 573c 4b3d f7d7 0fbd
00000130: f249 8bbd ef7d e43b 5585 03be bae3 173e
00000140: 23be 89bd 100a 3b3e 8bd0 9abd 1e43 653d
00000150: 4ec1 273e d6d5 f4bd 9bf1 da3d 75c5 c4bd
00000160: eb87 1fbd af2b 9d3d 756b 5f3c c106 54be
00000170: c078 01be b77e aabd 1351 cdbd ae5f 1e3e
00000180: f029 b33d c4dd 8cbb 93f3 0c3c b15b 983d
00000190: 3df2 16be 7b40 373c 74ee 273d 9d20 63be
000001a0: ac09 933c 6e68 24be b106 e33c dfed b33d
000001b0: d046 a1bd 601f a93d b762 b5bd c6af 3fbe
000001c0: e029 22bd e25f 093e 0fd0 22be 8ce4 a1bc
000001d0: f1bb 113e 5893 163e 291b 9ebd 724c 4abe
000001e0: 471a 41be 13f4 87bd 1884 0abe ac1a 7dbe
000001f0: 5ea4 7c3d 9c7f ebbc 869e e63d bf36 57be
00000200: bdb9 c93d 732c c73d 6da6 0dbe db95 f73d
00000210: e265 53bd 3625 55be d2f8 4ebe c29a 3f3b
00000220: cddf 663d 7da3 833c c62c cbbd 6a34 f8bd
00000230: 2f0e eb3c 0d10 31bc 3e46 ccbd 85b7 0fbe
00000240: c5ef 083e d5cb d03c e6aa 983d 4ab0 42bd
00000250: d827 e83d a462 533d 1981 373c cf08 eb3d
00000260: edfd f03d 4f1f 1abe 5c38 cebd ec20 28be
00000270: 723a 6dbd 44c2 f1bd 0843 193e 21db 7f3d
00000280: 49b8 20be bfff 9d3c 91c6 2ebe be57 b6bc
00000290: 9de9 083e b667 25bd d227 063e 90fa 24be
000002a0: 603e 4abd 7a7f 713d 871d bc3d 76c6 55bd
000002b0: ba0c e8bc 647b 7abd caa8 2ebe dd61 153d
000002c0: 5342 8abc 9921 883c bfcd 003d b391 023e
000002d0: ab05 0c3d 5c32 20be ef61 06be 854b 533d
000002e0: 5bfc 53bd fb97 053c 5a6e 093e ef11 353e
000002f0: dbf2 f93d 02d3 34be db32 f63b d8b7 e1bd
00000300: 9b72 65bc 370d c4bb 12cb 873b 3e4e 25be
00000310: 386a 90bd 5fdb 3b3c 0c3d 5ebe 4fbd 8e3d
00000320: 08e6 ce3d 7a6f cbbd 82d4 0c3e 827f 033e
00000330: 48a4 a3bd d66e 003e a075 fcbd 2d4e 12bd
00000340: 8ee1 ddbd 1ebb 373e 0cbc a33c 9973 ddbd
00000350: 66d5 c33d 70c5 45bd 7609 0b3d 46a0 9dbd
00000360: c67d b8bd 1f5e 31bc b88c 27be e34a 14bd
00000370: e9a4 263d 122f 4dbb 2738 803d a040 ea3d
00000380: f5ca 85bb 535c 303e 2e82 c33c 9cd6 d03d
00000390: 97ac 55be 9887 ba3c 07fc 22be ea11 dc3d
000003a0: 3b4b a6bd ae56 233e 4d81 ad3c d3e2 37be
000003b0: 1b3c dcbc 741f f93d 2c89 b73d 020c d1bd
000003c0: 1f74 a63d 55ee b8bd 9e12 1abd 84d8 cebc
000003d0: ac3d 773d 1d8b 9f3d 92bc 703d 5e65 453e
000003e0: ea06 dcbc 5ed7 8dbd e98b f53d 32b1 ed3d
000003f0: cc57 993d 4c72 00be c289 073e 3bd3 003d

actor.2.weight f4 [256, 512]
0.015880227 0.047566768 -0.004051411 0.06772646 -0.040299434 0.13377917 0.023042532 0.07084941
-0.042510103 -0.041523162 -0.04775553 0.049598005 0.067699656 -0.13925815 0.007590785 -0.057418104
0.10305572 -0.004154653 0.050177313 -0.008126024 -0.065829225 -0.04627326 0.01673253 0.10169818
0.006232238 -0.0791012 0.07920371 -0.038378 0.08536189 -0.011391176 -0.0059014834 0.06539274
-0.002072425 0.031778406 -0.054646734 0.030369993 0.033804886 -0.02459609 -0.121138476 0.04786778
-0.021121528 0.050671235 -0.11614053 -0.00063913414 0.00089210545 0.059917875 0.04227668 0.0095671015
0.02636745 0.023110412 0.03511369 0.1782115 0.07498195 0.10393201 0.09004152 -0.005873066
0.061739128 -0.08581578 0.012701189 0.018492363 0.056108695 -0.1456235 0.093723506 0.13708891
-0.05982051 0.16655894 0.07213125 0.09218258 -0.0019805557 0.06819088 -0.112498954 0.0012641471
0.015968727 -0.06246885 0.13090728 0.021202246 0.089132294 0.120610155 -0.073660746 0.050665077
-0.03312653 0.008694327 -0.12185158 0.020168785 0.03011645 0.03836043 0.107166514 0.04922817
0.018624758 0.027033858 -0.067351535 -0.09416975 0.026524559 0.09892156 -0.012324468 -0.11140962
0.1925157 -0.041766968 0.20910889 -0.028996665 0.1586226 0.16091359 -0.07229212 -0.0023459452
0.009704231 -0.10380775 0.037846874 -0.068802066 0.046066143 0.14411777 -0.041808687 -0.003125706
-0.021582091 0.06999755 -0.04101357 0.010957165 -0.08303043 -0.0036176217 -0.1172403 -0.043181818
-0.060281698 -0.015384703 0.0060713324 0.011483408 -0.10273206 0.020673549 0.05682904 -0.124972396
0.15962128 0.09908019 0.0814091 0.0952712 -0.11253191 0.036449358 0.045031328 0.012787524
0.009570492 0.058072284 -0.15536585 0.017317154 -0.039907195 0.12305367 0.07510026 -0.030408368
0.09464785 0.091096856 -0.07696374 -0.04112973 0.107595146 -0.0381367 -0.034413464 0.014972229
0.12140158 0.036671728 -0.039169002 -0.02124024 -0.09453837 0.20274718 0.16185842 0.019963335
-0.0021864823 -0.008620719 0.028442575 0.044661943 0.07376419 -0.039481886 0.052409407 -0.04281345
-0.01223535 -0.07918368 0.048809897 0.029109329 0.049829394 0.05324868 -0.12987283 -0.09340518
-0.09299525 0.24687068 0.011485771 -0.070741214 -0.043727197 -0.10084418 -0.037957113 0.14452568
-0.08788477 -0.16660115 0.00660474 -0.031169482 0.033044703 -0.10915718 0.06832498 0.02889302
0.09311254 0.033115126 0.093092114 -0.09294612 0.08055851 -0.03625325 -0.022920001 -0.010649291
-0.015648618 -0.022036696 0.049054187 -0.04937783 0.11226662 -0.09619105 -0.007968339 -0.0010352626
-0.10519551 0.041540258 0.067262724 -0.0183231 0.025664836 0.025244676 0.0016106524 0.04285065
0.14114958 0.0026475023 0.024720239 0.0061144554 0.052226335 -0.056373708 -0.020255646 0.12673652
-0.05704053 0.16110392 -0.04252677 0.011045541 0.06317521 -0.14867954 0.025319584 0.06070487
-0.048639752 -0.12118053 0.09336584 0.09096035 0.16736479 -0.0489995 0.10542209 -0.01744426
0.041321196 0.0830348 0.042994764 -0.10732521 0.12949543 0.19337058 0.06279028 0.06407481
0.14680462 -0.018456543 0.23383766 0.15382527 0.08204866 0.012647637 0.0058114165 -0.023496024
00000000: 4017 823c 5fd5 423d b3c1 84bb 2cb4 8a3d
00000010: 0511 25bd 68fd 083e b1c3 bc3c 7f19 913d
00000020: 131f 2ebd 3114 2abd 4d9b 43bd 4727 4b3d
00000030: 1ea6 8a3d b099 0ebe 1fbc f83b 3f2f 6bbd
00000040: e10e d33d c123 88bb ba86 4d3d 0423 05bc
00000050: 79d1 86bd 0889 3dbd a912 893c 2347 d03d
00000060: cd37 cc3b cfff a1bd 8e35 a23d 4032 1dbd
00000070: 37d2 ae3d 0ea2 3abc 3b61 c1bb a1ec 853d
00000080: 86d1 07bb 132a 023d 41d5 5fbd 7eca f83c
00000090: fe76 0a3d bd7d c9bc 7317 f8bd 0111 443d
000000a0: 0e07 adbc a48c 4f3d 16db edbd 918b 27ba
000000b0: 2fdc 693a 726c 753d 502a 2d3d 55bf 1c3c
000000c0: 8d00 d83c 0c52 bd3c 5fd3 0f3d 137d 363e
000000d0: 2390 993d 4eda d43d b067 b83d d972 c0bb
000000e0: 2be2 7c3d 2fc0 afbd a618 503c 4c7d 973c
000000f0: 3bd2 653d 541e 15be 1cf2 bf3d 0961 0c3e
00000100: 5a06 75bd 6d8e 2a3e 8cb9 933d 38ca bc3d
00000110: 36cc 01bb a9a7 8b3d da65 e6bd bdb1 a53a
00000120: d9d0 823c 56df 7fbd 8f0c 063e 55b0 ad3c
00000130: fe8a b63d 7502 f73d 72db 96bd 2f86 4f3d
00000140: afaf 07bd a772 0e3c 528d f9bd 0239 a53c
00000150: c6b6 f63c d41f 1d3d 1e7a db3d 7aa3 493d
00000160: f392 983c 1c76 dd3c 9aef 89bd 12dc c0bd
00000170: 084a d93c 6397 ca3d 91ec 49bc ba2a e4bd
00000180: d622 453e d713 2bbd a420 563e 6a8a edbc
00000190: f66d 223e 88c6 243e e40d 94bd 6ebe 19bb
000001a0: 7ffe 1e3c 2899 d4bd 5305 1b3d 19e8 8cbd
000001b0: daaf 3c3d 9c93 133e 963f 2bbd a5d8 4cbb
000001c0: edcc b0bc e05a 8f3d d8fd 27bd ae85 333c
000001d0: dc0b aabd 9f15 6dbb af1b f0bd 6bdf 30bd
000001e0: f1e9 76bd 1f10 7cbc 07f2 c63b e724 3c3c
000001f0: 3065 d2bd 935b a93c 91c5 683d 87f1 ffbd
00000200: c373 233e 8eea ca3d d0b9 a63d 8c1d c33d
00000210: 2177 e6bd ec4b 153d c572 383d c382 513c
00000220: 8ecd 1c3c 34dd 6d3d 3a18 1fbe b4dc 8d3c
00000230: ba75 23bd 9003 fc3d 2ace 993d f81a f9bc
00000240: bbd6 c13d fd90 ba3d 2a9f 9dbd a677 28bd
00000250: d85a dc3d 3a35 1cbd 22f5 0cbd 144e 753c
00000260: 64a1 f83d 1835 163d ad6f 20bd 0300 aebc
00000270: 559d c1bd f59c 4f3e 37be 253e 268a a33c
00000280: 164b 0fbb eb3d 0dbc 6700 e93c 71ef 363d
00000290: ae11 973d c2b7 21bd 3fab 563d 285d 2fbd
000002a0: c776 48bc 0e2b a2bd e3ec 473d b076 ee3c
000002b0: e819 4c3d 4a1b 5a3d 62fd 04be 374b bfbd
000002c0: 4b74 bebd abcb 7c3e d12e 3c3c c5e0 90bd
000002d0: 4a1b 33bd 6587 cebd eb78 1bbd 8afe 133e
000002e0: eefc b3bd 7e99 2abe 936c d83b 2457 ffbc
000002f0: e259 073d cd8d dfbd f8ed 8b3d 0eb1 ec3c
00000300: cab1 be3d baa3 073d 14a7 be3d 895a bebd
00000310: dcfb a43d 4a7e 14bd bac2 bbbc 5d7a 2ebc
00000320: 8831 80bc 4d86 b4bc 0bed 483d 6840 4abd
00000330: 0bec e53d d0ff c4bd a38d 02bc a6b1 87ba
00000340: be70 d7bd 1e26 2a3d 0ac1 893d 531a 96bc
00000350: 103f d23c eccd ce3c 871c d33a 2a84 2f3d
00000360: 8489 103e b881 2d3b 1982 ca3c c55b c83b
00000370: 48eb 553d 1ee8 66bd 2bef a5bc 38c7 013e
00000380: 55a3 69bd 6df8 243e 8d30 2ebd 5bf8 343c
00000390: 0162 813d 733f 18be 046b cf3c aba5 783d
000003a0: 7a3a 47bd 7f2d f8bd 9736 bf3d 6c49 ba3d
000003b0: ad61 2b3e b3b3 48bd 89e7 d73d 44e7 8ebc
000003c0: 6a40 293d 260e aa3d 471b 303d 52cd dbbd
000003d0: 739a 043e f002 463e 3198 803d a739 833d
000003e0: f353 163e 2d32 97bc 2473 6f3e 5f84 1d3e
000003f0: 2109 a83d 0938 4f3c b26d be3b bc7a c0bc

actor.2.bias f4 [256]
0.011592445 -0.029922854 -0.013983411 -0.14536527 -0.11676043 0.008391568 -0.055017725 0.1333555
-0.17839539 -0.083309814 -0.07932907 -0.043828715 -0.044353332 0.00045685327 -0.04352961 -0.11504495
-0.19652374 -0.05343557 0.052627526 0.0008724441 -0.023836737 0.031400036 -0.12255401 -0.050748773
-0.10545058 -0.118238114 0.04225727 -0.0044117845 -0.024936337 -0.104719505 0.08065797 -0.059227213
-0.053257097 -0.10836621 0.0029120394 -0.020522788 -0.07823923 -0.015582188 -0.07741721 0.02780573
-0.06304889 0.0011262659 0.035980366 -0.048053242 0.009630314 -0.08054289 0.07060509 -0.089525774
-0.009560685 0.03380161 -0.12990426 -0.19542713 -0.013664242 -0.09586116 0.015067754 0.07771748
-0.05566366 -0.037568282 -0.119072214 -0.08142511 -0.08500139 -0.021433385 0.005230761 0.05986007
-0.045915507 -0.10837639 -0.08840138 -0.036556147 -0.10839075 -0.01813827 0.046951782 0.03936962
0.038594864 -0.0044108457 -0.12639515 0.031885263 -0.022424854 -0.12596053 -0.021267258 0.044745304
-0.001485235 0.0073399525 -0.0026711116 -0.04448317 -0.11693991 -0.046432193 0.06854804 0.04591305
-0.033889815 -0.02583892 -0.114451475 0.007181491 0.03781967 -0.014620924 -0.02694733 0.0050253496
-0.06850655 0.060535666 -0.038114477 -0.049162444 -0.044775806 -0.022248762 0.023382718 0.008070219
-0.042752594 0.03399804 -0.025230287 -0.05195341 0.09961417 -0.027151456 0.029818138 -0.0935617
-0.03737923 -0.053110216 0.03957458 -0.08449747 0.018402994 -0.042554032 0.0019129028 -0.10534147
-0.11629364 0.058714736 -0.006986861 -0.025546817 0.029349387 -0.16750287 -0.086886555 -0.08715551
-0.03771282 0.011139675 -0.020198477 0.12615383 0.06991645 -0.10896819 -0.09747894 -0.026103806
0.038397063 -0.07337928 -0.021861367 -0.04154146 -0.112101324 -0.12967788 -0.008063628 0.04159702
-0.025187049 -0.09195818 -0.056616798 0.08744296 -0.19061849 -0.08328565 -0.119584724 -0.029286085
0.015502751 -0.020582784 -0.09999935 -0.062345978 -0.057461556 0.009444594 -0.06994279 -0.0060971132
-0.06507307 -0.10422227 -0.13165686 -0.18517983 -0.030885108 -0.12628694 -0.003135849 0.007829717
-0.098369695 -0.06696122 0.01536048 -0.12864262 -0.08564493 -0.003621352 -0.10931639 0.057940498
-0.0060657244 -0.079504006 -0.012117048 -0.002411367 0.038137015 -0.09709969 -0.010690993 -0.056066155
0.008540319 -0.10752062 -0.053929843 -0.061434004 -0.062434852 -0.08510059 -0.14040764 -0.049892582
-0.0203638 -0.15414079 -0.03586338 -0.057008285 0.02583293 -0.025090482 -0.0013565995 -0.07593629
-0.057125833 -0.10674226 -0.05667597 -0.036029164 -0.20794667 -0.077460326 -0.08389267 -0.113741
0.047993824 -0.0314299 -0.02052608 -0.047782563 -0.027947146 -0.021243842 -0.12550099 -0.020789046
-0.047143187 -0.0009805731 -0.12627053 -0.010998382 -0.059854902 -0.059847157 -0.12662621 -0.042035796
0.012641326 0.0027190682 0.006226187 -0.0041499846 0.0064465837 -0.03217091 0.03737224 0.037917435
-0.06792614 -0.038857255 0.009870554 0.05061542 0.03233644 -0.15602818 -0.053487957 0.03286819
-0.05540148 -0.10884603 -0.11288348 -0.07889498 0.00023090349 -0.10315422 0.018262284 -0.030222172
-0.016865885 0.0023346269 0.05198651 -0.073410906 -0.101167284 -0.103628956 0.09490224 -0.033437848
00000000: 3dee 3d3c c620 f5bc ad1a 65bc a2da 14be
00000010: 1820 efbd ca7c 093c 445a 61bd 588e 083e
00000020: 48ad 36be 569e aabd 4877 a2bd bd85 33bd
00000030: d7ab 35bd cf85 ef39 1b4c 32bd b09c ebbd
00000040: 853d 49be 42df 5abd f68f 573d bcb4 643a
00000050: 4345 c3bc 539d 003d 99fd fabd f2dd 4fbd
00000060: 79f6 d7bd d326 f2bd f615 2d3d bb90 90bb
00000070: 4a47 ccbc 2e77 d6bd 0130 a53d 3c98 72bd
00000080: 1d24 5abd 1aef ddbd ead7 3e3b 681f a8bc
00000090: e43b a0bd 6f4c 7fbc ea8c 9ebd d8c8 e33c
000000a0: c71f 81bd 369f 933a 2660 133d 7ad3 44bd
000000b0: 77c8 1d3c acf3 a4bd 6799 903d 4a59 b7bd
000000c0: 6ba4 1cbc 8f73 0a3d 9f05 05be 0d1e 48be
000000d0: fcdf 5fbc db52 c4bd bede 763c 582a 9f3d
000000e0: 94ff 63bd 33e1 19bd 22dc f3bd 35c2 a6bd
000000f0: 3515 aebd 1195 afbc ce66 ab3b d52f 753d
00000100: e611 3cbd 71f4 ddbd c80b b5bd e6bb 15bd
00000110: f8fb ddbd b696 94bc 8350 403d 0a42 213d
00000120: a615 1e3d db88 90bb bb6d 01be 1f9a 023d
00000130: 54b4 b7bc ccfb 00be ac38 aebc da46 373d
00000140: 38ac c2ba fc83 f03b d10d 2fbb fc33 36bd
00000150: 317e efbd af2f 3ebd ea62 8c3d 530f 3c3d
00000160: 0cd0 0abd 25ac d3bc 8965 eabd b652 eb3b
00000170: cce8 1a3d 9a8c 6fbc a6c0 dcbc b0ab a43b
00000180: 294d 8cbd 3ff4 773d ed1d 1cbd 8f5e 49bd
00000190: d666 37bd 0943 b6bc 1d8d bf3c f438 043c
000001a0: 581d 2fbd 8741 0b3d bfaf cebc 19cd 54bd
000001b0: 8402 cc3d bb6c debc 2b45 f43c 479d bfbd
000001c0: f71a 19bd 198a 59bd f418 223d 020d adbd
000001d0: e0c1 963c 234d 2ebd 5eba fa3a 45bd d7bd
000001e0: 5c2b eebd dd7e 703d 0af2 e4bb 8f47 d1bc
000001f0: 206e f03c df85 2bbe 94f1 b1bd 977e b2bd
00000200: c278 1abd 2f83 363c 4777 a5bc 782e 013e
00000210: 5b30 8f3d b72a dfbd 0aa3 c7bd a6d7 d5bc
00000220: 3d46 1d3d e047 96bd 9c16 b3bc 6127 2abd
00000230: 6195 e5bd 47ca 04be 4f1d 04bc a361 2a3d
00000240: 1255 cebc 9254 bcbd 04e7 67bd 4b15 b33d
00000250: 7e31 43be ab91 aabd d6e8 f4bd 5fe9 efbc
00000260: 40ff 7d3c 3a9d a8bc 76cc ccbd 7f5e 7fbd
00000270: cf5c 6bbd 80bd 1a3c 2a3e 8fbd 4bca c7bb
00000280: 0845 85bd 7c72 d5bd 0ed1 06be c89f 3dbe
00000290: c402 fdbc 5d51 01be d182 4dbb 3748 003c
000002a0: 0d76 c9bd f722 89bd 86aa 7b3c e4ba 03be
000002b0: 9c66 afbd 3454 6dbb 45e1 dfbd 0453 6d3d
000002c0: fcc2 c6bb ffd2 a2bd 9586 46bc 0608 1ebb
000002d0: 8f35 1c3d 34dc c6bd 4629 2fbc a0a5 65bd
000002e0: b2ec 0b3c c533 dcbd 8ae5 5cbd 39a2 7bbd
000002f0: b0bb 7fbd 3849 aebd 05c7 0fbe 2a5c 4cbd
00000300: fcd1 a6bc 15d7 1dbe 7be5 12bd 8581 69bd
00000310: 959f d33c 8e8a cdbc edcf b1ba 7c84 9bbd
00000320: c7fc 69bd b09b dabd 1025 68bd 5193 13bd
00000330: f9ef 54be 85a3 9ebd eccf abbd 0bf1 e8bd
00000340: 2c95 443d a4bc 00bd 4f26 a8bc a6b7 43bd
00000350: 6af1 e4bc 9107 aebc 5583 00be ca4d aabc
00000360: 3719 41bd 9386 80ba 104d 01be 8f32 34bc
00000370: 6a2a 75bd 4b22 75bd 4daa 01be ba2d 2cbd
00000380: 901d 4f3c 6532 323b 0b05 cc3b 98fc 87bb
00000390: dd3d d33b a5c5 03bd a213 193d 504f 1b3d
000003a0: dc1c 8bbd c928 1fbd 1bb8 213c 1d52 4f3d
000003b0: 3773 043d dac5 1fbe 3016 5bbd cca0 063d
000003c0: aaec 62bd abea debd 742f e7bd b193 a1bd
000003d0: af1e 7239 8542 d3bd c99a 953c 7d94 f7bc
000003e0: 532a 8abc 8a00 193b cfef 543d 7558 96bd
000003f0: cb30 cfbd 6b3b d4bd 1b5c c23d 20f6 08bd

actor.4.weight f4 [128, 256]
0.015851835 -0.14375304 -0.04473582 0.068752035 -0.012764525 0.057724096 0.0940744 -0.008544868
-0.0023385223 0.038887884 -0.10064718 -0.0027983976 -0.06987451 0.08647793 0.0020580308 0.032718126
-0.03900623 -0.028199125 0.09060851 0.11511975 -0.07414428 -0.10622747 0.028655965 0.035067607
0.015484739 0.04338593 0.0877651 0.13067558 -0.072490476 0.020856882 -0.13215657 -0.093993984
-0.10979473 0.085254595 -0.061144233 0.022748645 -0.07351213 0.014199163 -0.035140757 -0.018285269
0.010595521 -0.08373809 -0.002883076 0.0017514948 -0.099820755 -0.006156564 -0.08738759 -0.09652698
-0.043707315 -0.10626612 0.08364793 8.649359e-05 -0.12519844 0.04214375 -0.018229406 0.011158871
-0.027663225 0.0784215 0.014076736 -0.035169527 -0.05431124 0.116919346 -0.10714786 -0.024257742
-0.11242448 0.009753284 -0.19624788 0.009081019 -0.0747847 -0.10860834 -0.015237688 -0.002098064
-0.0028082468 0.025961488 0.047453023 -0.11635088 0.019174501 -0.0040296996 -0.124655955 0.052644502
-0.057157777 -0.0414845 0.02841499 0.07030992 -0.20360428 0.062226586 -0.041365862 0.038230103
-0.079287104 -0.18005764 0.006665909 0.015688797 0.030997282 0.007939549 0.24811867 -0.07947566
-0.0017733622 -0.045951117 0.08813921 0.031192517 0.031383604 -0.025774237 -0.06615151 0.03702649
0.014142843 -0.11322834 -0.09440863 0.029572975 -0.038426664 -0.16147889 0.050036885 0.051734746
0.071441464 -0.008715594 0.0010535674 0.0087125525 -0.1292944 -0.04840496 -0.050526064 -0.021307344
-0.058482695 0.0040353006 -0.014789056 0.0027148474 -0.03462349 0.08421287 -0.087113306 -0.25224695
-0.03192613 0.017609296 0.029010495 -0.17301047 0.04022928 0.106287464 -0.0183129 0.15323105
-0.09658974 -0.02556712 -0.045239072 -0.001486675 -0.07835371 -0.12822935 0.049947727 -0.011867581
-0.023509856 -0.052830946 -0.10619746 0.11585314 0.035230093 -0.01705539 -0.022493364 -0.08729797
-0.09817595 -0.0013391231 -0.023580873 0.15840477 -0.026016815 0.08080463 0.00912099 -0.013734323
-0.06143628 0.060190275 -0.010178929 -0.06441129 -0.029241871 -0.011079164 -0.03574221 0.04155186
-0.015345207 0.048967555 -0.039796144 0.02547405 -0.007343762 -0.0016346024 0.018339718 -0.04647284
-0.030613853 -0.08128573 -0.0009476591 -0.051561583 0.026863897 -0.08407575 -0.014230307 -0.060886685
-0.08476714 -0.052417237 0.016360573 0.062608816 -0.05115172 -0.16222288 -0.025548153 -0.12635492
-0.064924225 0.04200516 -0.065270655 -0.059096314 0.021760445 0.11446547 -0.058964726 0.038062446
-0.23406197 0.11380172 0.061155073 -0.14699146 -0.018305501 -0.04692122 -0.13978788 -0.025687193
-0.0928562 -0.037459306 0.0066898605 0.02531593 -0.23283395 0.010267682 0.022493461 0.15313439
0.048765827 0.0066587087 0.029555714 -0.05117024 -0.077761285 -0.035342533 -0.06611161 -0.05902466
0.023861457 -0.010895427 0.012556603 -0.13565663 0.056681156 -0.16453919 0.026501741 0.10380307
0.07335226 0.03429674 0.052101187 0.04845559 0.043612078 -0.08863225 0.017198058 0.10598359
-0.050883662 0.10305066 0.0863443 0.17173462 0.00810228 0.07299828 0.040356223 0.11199469
-0.036817953 0.08974815 -0.0016312232 -0.07404805 0.011258354 0.05711783 -0.004086883 0.021906806
00000000: b5db 813c ff33 13be e83c 37bd decd 8c3d
00000010: 4c22 51bc 1a70 6c3d 14aa c03d c6ff 0bbc
00000020: e541 19bb e748 1f3d 1c20 cebd 5265 37bb
00000030: 5e1a 8fbd 571b b13d 07e0 063b 7103 063d
00000040: ffc4 1fbd da01 e7bc f490 b93d e7c3 eb3d
00000050: f5d8 97bd ca8d d9bd eabf ea3c 0da3 0f3d
00000060: b4b3 7d3c 72b5 313d 30be b33d d2cf 053e
00000070: e375 94bd 0ddc aa3c 0d54 07be eb7f c0bd
00000080: 0fdc e0bd f699 ae3d 6072 7abd 5e5b ba3c
00000090: 878d 96bd 9ba3 683c c1ef 0fbd fdca 95bc
000000a0: d698 2d3c e07e abbd fdf1 3cbb 6a92 e53a
000000b0: d36e ccbd 01bd c9bb 44f8 b2bd f0af c5bd
000000c0: 7106 33bd 0da2 d9bd 9b4f ab3d e463 b538
000000d0: 0534 00be ed9e 2c3d d655 95bc b3d3 363c
000000e0: fd9d e2bc 749b a03d 1ca2 663c ec0d 10bd
000000f0: 7675 5ebd 6973 ef3d 5670 dbbd 2cb8 c6bc
00000100: ce3e e6bd 3dcc 1f3c 34f5 48be 8ec8 143c
00000110: b928 99bd 0d6e debd 7fa7 79bc ac7f 09bb
00000120: 900a 38bb 30ad d43c 1a5e 423d 5f49 eebd
00000130: d813 9d3c 920b 84bb 9f4b ffbd c3a1 573d
00000140: 461e 6abd a7eb 29bd 8ec6 e83c a6fe 8f3d
00000150: a47d 50be 4ee1 7e3d 406f 29bd 2b97 1c3d
00000160: 4761 a2bd 0861 38be b36d da3b cb85 803c
00000170: 03ee fd3c e214 023c d212 7e3e 23c4 a2bd
00000180: 2970 e8ba 3d37 3cbd 5582 b43d 7387 ff3c
00000190: 188c 003d 7e24 d3bc 717a 87bd 17a9 173d
000001a0: 62b7 673c 43e4 e7bd 5059 c1bd 0643 f23c
000001b0: 4765 1dbd b95a 25be 7af3 4c3d d0e7 533d
000001c0: e74f 923d dacb 0ebc db17 8a3a 18bf 0e3c
000001d0: c065 04be 4844 46bd 6bf4 4ebd bd8c aebc
000001e0: 8d8b 6fbd 8e3a 843b cc4d 72bc 95eb 313b
000001f0: 5cd1 0dbd cc77 ac3d 7668 b2bd 8326 81be
00000200: f9c4 02bd 5f41 903c 6ba7 ed3c a829 31be
00000210: 75c7 243d 3ead d93d ef04 96bc 9ae8 1c3e
00000220: d7d0 c5bd 2372 d1bc 9b4c 39bd 89dc c2ba
00000230: e977 a0bd 8e4e 03be fd95 4c3d 3e70 42bc
00000240: be97 c0bc 4365 58bd 0e7e d9bd 6944 ed3d
00000250: 6e4d 103d bfb7 8bbc 0144 b8bc 47c9 b2bd
00000260: 7910 c9bd 8485 afba ad2c c1bc dc34 223e
00000270: 3721 d5bc e67c a53d 3470 153c ed05 61bc
00000280: 9ca4 7bbd 148a 763d 86c5 26bc 11ea 83bd
00000290: a68c efbc 6285 35bc 6c66 12bd 4832 2a3d
000002a0: 776a 7bbc 3492 483d 4801 23bd f4ae d03c
000002b0: f1a3 f0bb 2840 d6ba 2d3d 963c 4e5a 3ebd
000002c0: e7c9 fabc 2279 a6bd 536c 78ba 3d32 53bd
000002d0: ad11 dc3c e82f acbd 3c26 69bc 5164 79bd
000002e0: 659a adbd 75b3 56bd 9c06 863c 0d39 803d
000002f0: 7784 51bd c11d 26be 5c4a d1bc 2f63 01be
00000300: fef6 84bd 9a0d 2c3d 9fac 85bd fa0e 72bd
00000310: f642 b23c df6c ea3d ff84 71bd 5ee7 1b3d
00000320: f1ad 6fbe e010 e93d be7d 7a3d ee84 16be
00000330: 6bf5 95bc 7730 40bd 8e24 0fbe f36d d2bc
00000340: 642b bebd ee6e 19bd 9e36 db3b 5a63 cf3c
00000350: 066c 6ebe c839 283c 3544 b83c 43cf 1c3e
00000360: adbe 473d 4c31 da3b d31e f23c e397 51bd
00000370: 4f41 9fbd 55c3 10bd 8665 87bd d8c3 71bd
00000380: 1a79 c33c bc82 32bc 36ba 4d3c 92e9 0abe
00000390: 802a 683d f67c 28be 2e1a d93c b496 d43d
000003a0: b639 963d bd7a 0c3d 0e68 553d 5e79 463d
000003b0: 94a2 323d d384 b5bd f1e2 8c3c ed0d d93d
000003c0: 636b 50bd 390c d33d 48d5 b03d 33db 2f3e
000003d0: 6dbf 043c 1f80 953d 914c 253d 795d e53d
000003e0: 6cce 16bd e1cd b73d c5ce d5ba 81a6 97bd
000003f0: f674 383c 63f4 693d 42eb 85bb e775 b33c

actor.4.bias f4 [128]
-0.01929823 -0.069965795 -0.00791715 -0.0033414874 -0.07922207 -0.057599608 -0.053173263 0.021806391
-0.10815976 0.009978396 -0.07534267 -0.014785449 -0.067936935 -0.084156744 0.03261438 -0.028852155
0.067912936 -0.15752058 -0.1374291 -0.025957622 0.04408066 0.034072675 -0.028972091 -0.01652538
-0.13471422 -0.026607411 0.01928642 -0.0806069 -0.039436355 0.025390813 -0.054291386 -0.15037936
-0.09493884 -0.001855314 -0.12852721 -0.04581986 -0.05274671 -0.007888701 0.014694271 0.0010156744
0.009654079 -0.111345515 -0.06756411 -0.03426284 -0.032497156 -0.043538604 0.11894683 -0.040261626
0.010703153 -0.08293645 -0.020306729 -0.021938685 -0.003882363 -0.022397382 -0.04968947 -0.062337827
-0.10512429 0.009750442 -0.12370024 -0.0878056 -0.006901887 -0.049556434 -0.028135575 0.056233518
-0.021273432 -0.1156562 0.06185574 -0.033900347 -0.04607937 -0.026247771 0.018729575 -0.13230316
-0.031831678 -0.10161161 0.0076220394 -0.13145824 -0.086278476 0.0005298516 -0.07087049 -0.1162953
0.0072821304 -0.01782856 0.099140674 -0.05259075 -0.0035476303 -0.06989221 -0.03258388 -6.38266e-05
-0.09033894 -0.119705796 -0.0011221557 -0.0014460384 0.034856025 0.03916799 -0.12995031 0.012435698
-0.047247656 -0.12164589 -0.18430385 -0.013018839 -0.014359556 0.017330127 0.033541046 -0.07571944
-0.021948058 -0.0068972753 -0.019057715 0.044913 0.0032720733 -0.054787826 -0.12749651 0.08009774
0.023228861 -0.081312865 -0.078165114 -0.05978143 -0.08690687 -0.086255275 -0.06874989 -0.027076999
-0.068970904 0.053022813 -0.10087544 -0.032281347 -0.0325049 -0.01780798 -0.016188258 -3.6294853e-06
00000000: 5217 9ebc 3a4a 8fbd efb6 01bc dbfc 5abb
00000010: 2e3f a2bd 91ed 6bbd 35cc 59bd 51a3 b23c
00000020: dd82 ddbd 6d7c 233c 424d 9abd ab3e 72bc
00000030: 8522 8bbd 5f5a acbd a896 053d 5b5b ecbc
00000040: f015 8b3d 134d 21be 37ba 0cbe 14a5 d4bc
00000050: ec8d 343d ca8f 0b3d e156 edbc 3c60 87bc
00000060: 86f2 09be c9f7 d9bc 8efe 9d3c 3b15 a5bd
00000070: 0488 21bd 6500 d03c a560 5ebd 0cfd 19be
00000080: 4b6f c2bd 022e f3ba a39c 03be 9bad 3bbd
00000090: ef0c 58bd 9c3f 01bc 3dc0 703c 6120 853a
000000a0: 242c 1e3c 1e09 e4bd 0d5f 8abd 3157 0cbd
000000b0: bd1b 05bd 8955 32bd 659a f33d 60e9 24bd
000000c0: 475c 2f3c 96da a9bd 4c5a a6bc c2b8 b3bc
000000d0: 3e6f 7ebb b77a b7bc 3087 4bbd f355 7fbd
000000e0: 674b d7bd 51c0 1f3c 8d56 fdbd 6cd3 b3bd
000000f0: 3929 e2bb b0fb 4abd 947c e6bc 1e55 663d
00000100: 9f45 aebc 28dd ecbd 725c 7d3d 17db 0abd
00000110: b9bd 3cbd 9105 d7bc c46e 993c 7b7a 07be
00000120: ef61 02bd bf19 d0bd 4dc2 f93b fd9c 06be
00000130: c5b2 b0bd bde5 0a3a 8c24 91bd 3b2c eebd
00000140: f09e ee3b 330d 92bc 440a cb3d 6669 57bd
00000150: 5c7f 68bb a623 8fbd ad76 05bd a5da 85b8
00000160: 9f03 b9bd 5028 f5bd 4c15 93ba ff88 bdba
00000170: 31c5 0e3d 9d6e 203d b211 05be 19bf 4b3c
00000180: c286 41bd 7b21 f9bd 26ba 3cbe f84c 55bc
00000190: 5844 6bbc e9f7 8d3c 5662 093d cb12 9bbd
000001a0: 6acc b3bc 8a02 e2bb ed1e 9cbc b2f6 373d
000001b0: 4870 563b 3369 60bd 728e 02be 490a a43d
000001c0: 744a be3c 5c87 a6bd 0815 a0bd 5fdd 74bd
000001d0: 3bfc b1bd 9ba6 b0bd becc 8cbd 95d0 ddbc
000001e0: 9e40 8dbd 732e 593d c897 cebd 7239 04bd
000001f0: dc23 05bd 0ae2 91bc 3d9d 84bc 1592 73b6

actor.6.weight f4 [12, 128]
0.071299806 -0.01933102 0.05683968 -0.014829152 0.06372515 -0.1738421 -0.118667975 -0.062143266
0.016500445 0.055113964 0.025731282 0.045737028 -0.11455393 0.098600134 0.17886613 0.05742895
0.07779509 -0.08217687 0.09627294 0.08051237 -0.083873354 0.007562074 -0.052203517 -0.0010378385
-0.022572882 -0.042040784 0.034354866 0.027712185 -0.1597301 0.07918835 0.034991313 0.10959633
-0.071432196 0.0034603903 -0.13647273 0.18164055 0.060472302 -0.0531956 0.010312609 0.04775379
-0.059091758 0.0600754 0.0520515 -0.1285219 0.052271668 -0.010222948 -0.14050889 0.08679345
0.10029299 -0.0022895453 0.004315567 -0.019161765 -0.010602517 0.039760735 -0.051183198 -0.098510966
-0.11409905 0.045972753 0.16409548 -0.08008413 0.23779652 -0.12507628 -0.17144816 -0.047420263
0.008442741 0.09898804 0.021208966 -0.041896142 -0.0041385605 0.016783534 -0.058165483 -0.040565256
-0.0180327 -0.07505127 -0.02854348 -0.10887093 0.070720494 -0.11204164 -0.009954416 -0.06389046
-0.02598683 -0.00012268686 -0.0010986108 -0.08584925 -0.00027917387 0.20824164 -0.08076248 0.01977853
-0.06309397 0.06876334 0.13651006 -0.031957153 0.08711825 -0.028381038 0.08723341 -0.06851821
-0.037036378 -0.03936184 -0.042343948 -0.057805482 0.07037256 0.038488396 0.053770885 -0.032808177
0.07792828 0.048566163 0.006327395 0.051863946 -0.0046831663 0.008497936 -0.006454531 -0.21463296
0.10945318 0.015319993 -0.046110615 0.018679753 -0.05801301 -0.0045751124 -0.0020377685 -0.043359015
-0.007102231 -0.099533826 -0.07023838 -0.048892185 -0.11860759 -0.030572563 -0.10912922 0.050353248
-0.07395452 0.0042502945 0.024519214 0.053956527 0.023583148 0.13019933 -0.07634329 -0.06752696
-0.02864842 0.009330476 0.25576615 0.043006003 -0.041054256 -0.07830766 -0.09075665 -0.12631519
0.05698536 -0.04646043 -0.01080285 -0.100205354 -0.002659281 0.08467588 -0.011128168 -0.025678094
0.02624694 -0.036975555 0.035824697 -0.123919845 -0.0212042 -0.0872986 0.008346399 0.0011454502
-0.014942341 0.07171438 0.15509881 -0.020741219 -0.021647403 0.14537677 0.0678247 -0.15359195
0.17568313 -0.024392743 0.025249217 0.09940504 -0.049079344 0.054620862 -0.08878222 -0.09196718
0.045286916 0.13364427 -0.027153092 -0.07049756 0.03489652 0.17506126 0.06846376 0.040151447
0.113350034 -0.07380944 0.03994226 -0.05864483 -0.17219473 -0.09919896 -0.1623284 0.077323146
-0.07138908 -0.007123099 -0.015195983 0.059855044 -0.082499504 0.03478639 -0.042647075 0.06231472
-0.009133398 -0.0668188 0.12253584 0.074881755 -0.04834779 -0.0076335645 -0.0071144616 -0.09499885
-0.035226975 -0.020452265 0.19632007 0.034322295 -0.07945693 0.13519831 0.10264205 -0.14924641
-0.007039576 0.025260774 0.058721 0.15033264 0.07910103 0.023460321 -0.034471206 -0.050650038
-0.075356364 -0.07586461 -0.053437095 0.12784606 0.051722832 -0.052460648 0.10862686 -0.00039219813
-0.058194563 0.037763692 0.005342969 -0.096226625 0.00744456 0.05419879 -0.047939867 0.03356497
0.006070069 0.0912889 -0.034765583 0.014763717 0.03548517 -0.068752736 -0.12665924 -0.0056581465
-0.016196424 -0.008161777 0.14112654 -0.025944207 0.14630055 -0.01655925 -0.001896251 0.030904116
00000000: a205 923d 165c 9ebc b9d0 683d f9f5 72bc
00000010: 5582 823d aa03 32be 3208 f3bd f089 7ebd
00000020: f12b 873c 2ebf 613d 69ca d23c c056 3b3d
00000030: 409b eabd deee c93d af28 373e 9e3a 6b3d
00000040: 0853 9f3d 594c a8bd bf2a c53d abe3 a43d
00000050: cbc5 abbd 46cb f73b 5bd3 55bd 1508 88ba
00000060: c4ea b8bc f532 2cbd b0b7 0c3d aa04 e33c
00000070: 4a90 23be 802d a23d 0d53 0f3d 0a74 e03d
00000080: 0b4b 92bd b7c7 623b 82bf 0bbe fbff 393e
00000090: ceb1 773d a1e3 59bd 38f6 283c 7a99 433d
000000a0: 330a 72bd 9f11 763d f433 553d 3f9b 03be
000000b0: d11a 563d 277e 27bc 90e1 0fbe c4c0 b13d
000000c0: 6966 cd3d 320c 16bb 9a69 8d3b 22f9 9cbc
000000d0: 2eb6 2dbc 27dc 223d 79a5 51bd 1ec0 c9bd
000000e0: c3ac e9bd ed4d 3c3d a508 283e 2603 a4bd
000000f0: ee80 733e ff13 00be 1b90 2fbe c03b 42bd
00000100: 6c53 0a3c 3eba ca3d 6dbe ad3c 4a9b 2bbd
00000110: c39c 87bb 9f7d 893c ee3e 6ebd c127 26bd
00000120: 50b9 93bc 7bb4 99bd 04d4 e9bc b9f7 debd
00000130: e8d5 903d 1676 e5bd d917 23bc 00d9 82bd
00000140: 55e2 d4bc 81a5 00b9 43ff 8fba bbd1 afbd
00000150: 155e 92b9 4c3d 553e cd66 a5bd 9506 a23c
00000160: 6937 81bd cbd3 8c3d 4bc9 0b3e 81e5 02bd
00000170: 0e6b b23d 5a7f e8bc 6ea7 b23d 4653 8cbd
00000180: 75b3 17bd e139 21bd d970 2dbd 71c5 6cbd
00000190: 7d1f 903d 02a6 1d3d dc3e 5c3d de61 06bd
000001a0: dd98 9f3d 50ed 463d 0956 cf3b 4a6f 543d
000001b0: 3f75 99bb ed3a 0b3c 8880 d3bb bec8 5bbe
000001c0: fd28 e03d b500 7b3c 7cde 3cbd 4806 993c
000001d0: 0d9f 6dbd d3ea 95bb 158c 05bb 3999 31bd
000001e0: d5b9 e8bb 64d8 cbbd 24d9 8fbd 2c43 48bd
000001f0: 89e8 f2bd 5073 fabc 247f dfbd 353f 4e3d
00000200: 7875 97bd 0e46 8b3b 85dc c83c 8501 5d3d
00000210: 7231 c13c f952 053e df59 9cbd 934b 8abd
00000220: 17b0 eabc dade 183c c8f3 823e 1027 303d
00000230: 8228 28bd c45f a0bd 9fde b9bd c558 01be
00000240: 7b69 693d 4b4d 3ebd 70fe 30bc 7738 cdbd
00000250: 5547 2ebb 8c6a ad3d eb52 36bc de5a d2bc
00000260: d303 d73c ae73 17bd ebbc 123d b0c9 fdbd
00000270: 6eb4 adbc 9cc9 b2bd 56bf 083c ee22 963a
00000280: b8d0 74bc fdde 923d 39d2 1e3e 7de9 a9bc
00000290: e555 b1bc a6dd 143e ade7 8a3d 3547 1dbe
000002a0: 47e6 333e 4ad3 c7bc 72d7 ce3c df94 cb3d
000002b0: 6c07 49bd 20ba 5f3d 74d3 b5bd 4a59 bcbd
000002c0: c67e 393d 0bda 083e 2970 debc 0661 90bd
000002d0: a7ef 0e3d 4243 333e ba36 8c3d d875 243d
000002e0: 1024 e83d 6729 97bd 7f9a 233d 9035 70bd
000002f0: d153 30be d328 cbbd 6b39 26be 995b 9e3d
00000300: 7034 92bd e368 e9bb 93f8 78bc 902a 753d
00000310: 80f5 a8bd 2c7c 0e3d b3ae 2ebd b83d 7f3d
00000320: 3fa4 15bc 4cd8 88bd 12f4 fa3d 9b5b 993d
00000330: 5508 46bd fb22 fabb 6e20 e9bb c28e c2bd
00000340: 294a 10bd 828b a7bc 2108 493e 8995 0c3d
00000350: 51ba a2bd 6d71 0a3e ff35 d23d 0dd4 18be
00000360: 3eac e6bb afef ce3c 6e85 703d cdf0 193e
00000370: b9ff a13d dc2f c03c ae31 0dbd 6a76 4fbd
00000380: 7054 9abd e85e 9bbd dbe0 5abd 14ea 023e
00000390: 52db 533d fae0 56bd c277 de3d f19f cdb9
000003a0: 6c5d 6ebd 1aae 1a3d 1314 af3b 7712 c5bd
000003b0: 7ff1 f33b 8dff 5d3d 985c 44bd 6c7b 093d
000003c0: 6ee7 c63b adf5 ba3d 5b66 0ebd 84e3 713c
000003d0: e658 113d 3cce 8cbd f6b2 01be f967 b9bb
000003e0: 5dae 84bc f9b8 05bc 7a83 103e f288 d4bc
000003f0: d0cf 153e 44a7 87bc a08b f8ba a12a fd3c

actor.6.bias f4 [12]
0.12113762 0.07760888 -0.037938748 -0.17147563 0.15539347 -0.021179946 0.06782126 -0.0584872
0.053473756 -0.059394818 -0.08750661 -0.013806422
00000000: 0017 f83d 68f1 9e3d a965 1bbd 4f97 2fbe
00000010: 771f 1f3e 9181 adbc dfe5 8a3d 4690 6fbd
00000020: 4c07 5b3d fb47 73bd aa36 b3bd 5534 62bc
