logs/rsl_rl/unitree_a1_flat/2025-03-20_23-24-28/exported/policy.pt (torch, 775648 bytes, 8 tensors)

weight f4 [512, 48]
00000000: 10dc 6f3e 6f4f 423e 636b e03b b554 083f
00000010: e307 f3be ddcd fc3d b3cc 813e c49b cbbd
00000020: 6fee 4f3e 64e1 69be 7f38 373e 3d24 9e3e
00000030: 07e0 0a3e ffca e53e a6f5 ee3c adbf 11be
00000040: 0158 c6bd 0506 bf3d 0f54 41bd f1fd 30be
00000050: 9ad8 1d3e d31b 383e 07b0 c43d 3830 b2bc
00000060: df7a 8fbe a373 053d fe02 1b3e 86bc b73e
00000070: 90cb 923e ad49 863d f67f 6d3d f157 203e
00000080: ce23 823d 2620 b83d 4013 b1bc 597b 263d
00000090: feef 9a3d ee0d 983b f331 abbd 1bbf a63d
000000a0: c035 87bc 9f4a 35bc 0169 b0bd bfde 03bd
000000b0: 1f0f 4f3d a82b debc 69aa 063c b843 533d
000000c0: 5cac 89ba 3655 54be c878 e6be 5b59 193e
000000d0: b2f8 8ebe deb0 883e 065c 343e 4f06 8a3c
000000e0: 1be8 c13d 6173 8ebe db6e 653e a8ac 2c3f
000000f0: a64c 913e 2fde 703e 752b 913d efc5 e9bc
00000100: ab07 8cbd ad92 be3c 58e4 cbbd bb12 67bd
00000110: a400 59be 1ba2 583e aaaa 23be 7dff 63bd
00000120: 1748 de3a 784e 38be bd3f cbbd 1617 da3e
00000130: 9ced 6abc 323e a6bd 34fd d33c d64f efbb
00000140: aca8 bbbd 45c9 eb3c c9b0 d2bd dba2 27bd
00000150: bcd2 1cbd d74a 0a3d cbd5 2a3e 3268 0b3e
00000160: 9a3c e3bd e0b8 00bd ebf3 5f3e 5059 a8bd
00000170: 2ce6 5fbd 3681 6b3c 8b8f 18bd df56 043d
00000180: 72ac 36be b0cc 12be f906 d53c 71b1 a6bd
00000190: 8436 0fbf 4d90 3f3d 7a29 813d d3f6 b1bd
000001a0: 1275 fa3d 2186 a63e 417d c33d 971b d8bd
000001b0: c87e 3c3e bf09 0c3e 1083 b33e 6e50 b3be
000001c0: 9f8a cc3e a2d0 133e 02f5 9ebd 3afb 1d3e
000001d0: 4fd0 9ebd b4dd 603e cf9e cd3d f7d1 86be
000001e0: a298 7dbd 20a3 cb3c b4ea c4bb e778 fabd
000001f0: aebb 453e 0778 5c3e eea1 f1bc ed18 953b
00000200: f8b2 a6bd cbf4 503d 6534 efbd 7869 57bc
00000210: a121 e53b 21f1 943d e783 e6bc faf8 403d
00000220: 0b48 443d 74c8 563c 9181 32bd c72e b4bd
00000230: 8bb7 54be 7bed f53c 0a0b 3b3d 1c3e 49bd
00000240: 37d2 703e 54fd f43d ae31 d03e ca5c 083e
00000250: 46d1 1fbe 286b 9dbe f3fc 6abe 6fa6 503c
00000260: 34c6 ccbe 7103 4dbd 7072 c9bd bf7c eebe
00000270: b87e 313e edf2 853c 930e b9be d457 a6be
00000280: ec53 f33e c338 9c3a f17f d53e 5e3a 413e
00000290: 9ca1 c83d 9203 ee3e fb63 bf3b 7b8b 62be
000002a0: 023f 933d c18b 89bd 9710 5a3d 0f6f ddbd
000002b0: a046 993e b2a6 803d eed9 343c 76c0 9ebd
000002c0: 62ab 5f3d f464 11bd 3a2a 87bd 3be7 833d
000002d0: 2e4b 6abd 045d 7a3d b545 38bd 6ee9 88bb
000002e0: 63dc 9bbd f8d3 a6bc 4da9 7cbd b07a 283c
000002f0: f9b6 03be 7aab 1f3d 3c2d f13c cbaf 91bb
00000300: 4b3e b4bb a15d bd3d 480c a6bd 38b2 f23d
00000310: 1b6a 033f 97ac 023e df85 c73e 456a 39bd
00000320: 141d e8bd a195 29be f275 60be 0056 bebe
00000330: 6488 b5bd 1e42 303e 1c17 e03c 70bd 99be
00000340: cba1 69be 9112 34bd 39ad d6bc 329a 8bbd
00000350: ad84 f13c fd5e 993b d213 de3c 2c2d 8d3e
00000360: 44fd 4b3d 3fb5 0a3e 4521 733d ba16 b4be
00000370: 34d5 35bd 0937 82bc 2e06 91bd df5c a7bd
00000380: a757 133d 6aee 59bd c80e 3bbd 2eb9 cf3d
00000390: d32e 5d3d 0d34 f7bc 5eca 26be e125 45bc
000003a0: 8fe2 e0bd ab05 203d fec3 433e 7e2c 4abe
000003b0: 41f8 543d 664c 2ebd f5f5 d23d 57f1 a53c
000003c0: 415b 0abb 751f eebe 2cce 9abe 9797 25bf
000003d0: 2710 8e3d 461d 18be bb85 933e 214c 62bd
000003e0: dd04 823d c77a 533d f9f8 163d a837 5dbe
000003f0: 96b8 043e 6c39 f6bd 0b38 43be 3d60 20bd
0.23423791 0.18975614 0.006848739 0.5325425 -0.47466955 0.12343953 0.25351486 -0.09941819
0.20305799 -0.22839886 0.17892645 0.30887023 0.13562022 0.44881436 0.029169869 -0.14233275
-0.09684754 0.0932732 -0.047199305 -0.17284371 0.15414658 0.17979364 0.09603887 -0.021751508
-0.2802343 0.032580983 0.1513786 0.3588602 0.2867093 0.06557021 0.05798336 0.15658547
0.063544855 0.08990507 -0.021615624 0.040644977 0.07565306 0.0046403324 -0.083591364 0.08141919
-0.016505122 -0.011065154 -0.08613778 -0.03219485 0.05055153 -0.027120426 0.00821934 0.051578254
-0.0010503638 -0.2073563 -0.45014024 0.14975493 -0.27924114 0.2669744 0.17613229 0.016848711
0.09468099 -0.27822402 0.2240557 0.6745095 0.2837879 0.23522256 0.07088367 -0.028536765
-0.068374 0.0232633 -0.099556625 -0.056414347 -0.2119165 0.21155588 -0.15983072 -0.055663574
0.001695874 -0.17998683 -0.099242665 0.42595738 -0.014338877 -0.081173316 0.025877573 -0.0073032184
-0.09163031 0.028782496 -0.10287625 -0.040926795 -0.03828691 0.03376278 0.16683118 0.13613966
-0.11095543 -0.03142631 0.21870391 -0.0822016 -0.05466287 0.014374068 -0.03724627 0.03230941
-0.1783922 -0.14335895 0.026004301 -0.08139313 -0.5594256 0.046768475 0.06306739 -0.08689656
0.12229361 0.32524207 0.09545375 -0.10552137 0.18407738 0.13675593 0.3506093 -0.350223
0.3994951 0.14435056 -0.07761575 0.15427867 -0.077545755 0.21959573 0.10040056 -0.26332065
-0.06191314 0.024858057 -0.006009424 -0.122300915 0.19309875 0.21530162 -0.02949616 0.0045500905
-0.08139604 0.051014703 -0.11679915 -0.013147704 0.0069925343 0.07272554 -0.028139068 0.047112443
0.047920268 0.013109315 -0.043580595 -0.087979846 -0.20773141 0.030020466 0.045664825 -0.049131498
0.2351769 0.11962381 0.40662903 0.13316646 -0.15607175 -0.30745816 -0.22948055 0.012734993
-0.39994967 -0.05005211 -0.0983628 -0.4657955 0.17333496 0.016351188 -0.36143932 -0.32488883
0.47524965 0.0011918772 0.41699174 0.18869922 0.097964495 0.464871 0.005840776 -0.2212352
0.07189752 -0.06716109 0.053238478 -0.10812198 0.29936695 0.062817946 0.011038287 -0.07751553
0.054606803 -0.035496667 -0.06599851 0.06440588 -0.057200603 0.061123863 -0.044988353 -0.0041782176
-0.07610395 -0.020364746 -0.061684895 0.010283157 -0.12862767 0.038981892 0.029440515 -0.004446005
-0.00550059 0.09246374 -0.08107811 0.11850399 0.5133378 0.1276115 0.38969323 -0.045267362
-0.11333671 -0.16560985 -0.21919993 -0.37174988 -0.08863905 0.17212722 0.02735477 -0.30027342
-0.22815625 -0.04396302 -0.026205646 -0.0681652 0.02948221 0.004680513 0.02710906 0.27573526
0.04980208 0.13545702 0.0593579 -0.3517359 -0.04439278 -0.015895383 -0.07081257 -0.08172011
0.035972264 -0.053205885 -0.045668393 0.10142742 0.053999733 -0.030176187 -0.16288134 -0.012032957
-0.109807126 0.039067905 0.19117734 -0.19743535 0.051994566 -0.042553328 0.10300819 0.020256681
-0.002111152 -0.46508375 -0.30235422 -0.6468443 0.069366746 -0.14854917 0.28812966 -0.055248383
0.06348584 0.05163076 0.036858533 -0.21603262 0.12961039 -0.12022671 -0.19064347 -0.03915428

bias f4 [512]
00000000: 6625 0c3e 4ab7 6cbe a7b6 d73d 1cf0 9cbd
00000010: f5cd b8bd 2ff8 a93c f9ea 1abe 15b9 523c
00000020: 5894 96bc 3b7d 293e baa3 ad3d f6d5 b7bc
00000030: 32f1 2bbe eac5 52be d441 f83c 35e4 63bc
00000040: 161b dabd 4443 1abe befd 473e bd63 d03d
00000050: 22ea b43d 768c 303e 0688 fc3d 2101 f2bb
00000060: f6dc 3c3d f34d a83c 9fed 583e 826d 5b3e
00000070: f7a3 2dbe 0ba5 403c d2b0 38be 5078 8cbb
00000080: 9bed 153e bd69 49bd 1aea 323b 2b29 dcbd
00000090: 42aa 10bd 62f3 c6bd a249 30be b21f 9a3d
000000a0: 4cc1 7ebd 8694 a2bd 28d3 59be 6330 8abd
000000b0: 272a 093e 1e7d 853d 7867 1ebd 82bd a4bd
000000c0: 161e eebd 524b 943d 18ad aa3d 89d6 bcbd
000000d0: 78f7 ca3c 0f8e c13d 041e 5fbd 7878 1f3d
000000e0: ee7e babd 4dcb afbb aebe 22bd 9a8f 173d
000000f0: 71d9 64bd 6913 09be 73c6 96bd 29b8 47bc
00000100: 9bf3 543e 02a6 293e 53c4 1abe c0d1 21be
00000110: c184 39be 7a5c 563d eda1 5c3d a5bf c93d
00000120: 0bb8 943d 8e37 72bd 9bcf 373d 6fd3 eebc
00000130: d50e 67bd 1efe 00bc c563 e4bd 8867 133e
00000140: 0ad8 77bd cee6 333e 33e0 b0bd 0eb3 423d
00000150: 0b88 273e 9264 e1bd f7f9 d33d 6037 b7bd
00000160: 0a8a 2ebd ff86 873d 7d93 90bb d86e 4cbe
00000170: dbd4 fdbd 932e b3bd d5f1 efbd 3c75 2a3e
00000180: 9030 9c3d b93a e4bc 3262 1cbc b02a 3c3d
00000190: 099f 20be a8eb d5bb d9e3 443d d6f7 68be
000001a0: d038 953c 5fa7 1dbe b048 0c3c da86 903d
000001b0: 1403 89bd 25b7 903d a813 bfbd 0ea3 39be
000001c0: a9fe 82bd ab0f ee3d 3ffb 1dbe 793b e1bc
000001d0: 2cf9 143e 6c04 1c3e 1aa5 97bd 25bb 45be
000001e0: 516a 48be 6aa3 7bbd 9dbb 06be eafc 75be
000001f0: b4f4 413d 3414 17bd ea67 e03d 168f 58be
00000200: 2f49 d03d 199b af3d 15d7 10be 972c e33d
00000210: 0125 5fbd 7378 4fbe 432d 48be f7a7 093c
00000220: 57e0 783d ee1a ad3c 15ee c4bd 223d 0bbe
00000230: 14c1 b63c f794 a0bc 96ce abbd 14af 13be
00000240: ac03 0c3e 97cc 9fbb db49 ba3d d478 27bd
00000250: 7edb e83d eaa3 3a3d 7983 993c f0bb e93d
00000260: 2e9b fa3d 1568 1ebe 42d4 bfbd 7538 2bbe
00000270: 0da4 68bd bc32 e2bd 56bd 1a3e c8c6 6c3d
00000280: 30b0 24be 1041 df3c 284e 58be d50f b7bc
00000290: 67b3 143e 9aa9 79bd e96e 033e a0e6 20be
000002a0: 66a2 2bbd 649e 7d3d 0236 d23d 87e0 78bd
000002b0: 1b87 d4bc 1af0 80bd c8c6 42be 1977 b83c
000002c0: 2e6f b1bc 813c b03c f84f ab3c 5ea8 ff3d
000002d0: c262 143d a492 14be 7725 0cbe 223a 6b3d
000002e0: 93d2 5dbd 47ca 753c 1e71 073e 6d84 2c3e
000002f0: 365d 003e 4dfa 28be d751 6a3b 15de 0bbe
00000300: 1138 69bc 3ef1 93bc 0c13 92bc c335 1abe
00000310: 0deb 78bd 08c2 553c 1f04 4bbe d0cc 853d
00000320: 81ed d83d 521f c8bd bd9c 153e 14ba 033e
00000330: 554e b3bd 3531 e33d 5b43 fabd 2779 4cbd
00000340: 6824 d1bd b325 3a3e aca2 e73c 704c e4bd
00000350: 827a d03d 2041 5bbd ae7d 043d c955 68bd
00000360: 6a4b c2bd f6fe 18bc acdb 20be cbad 11bd
00000370: 7a79 1a3d 302e 08bb bc71 793d 1643 b73d
00000380: 42f9 9ab8 05ce 293e f3fd a43c 5047 db3d
00000390: c9f7 58be d170 963c 04d5 1bbe 029f fc3d
000003a0: daee adbd 1122 253e 45fb fa3c b75b 32be
000003b0: c826 f4bc d365 d43d 4d5c ba3d af8f adbd
000003c0: b23e ac3d 3451 bdbd a7ed 49bd 8001 afbc
000003d0: 647a 8e3d c2fb 4d3d 968c 503d 5910 3c3e
000003e0: 6f4a 63bc b9bb 8fbd 76d1 e73d ec43 df3d
000003f0: 0ea3 6d3d bcfc 02be 6475 083e 55cd ec3c
0.13686141 -0.23116794 0.10532885 -0.07662985 -0.09023658 0.020748226 -0.15128697 0.01286151
-0.018381283 0.16551678 0.08478494 -0.022440892 -0.16791227 -0.2058331 0.030304827 -0.013909389
-0.106496975 -0.15064722 0.19530389 0.101752736 0.0883372 0.17241082 0.12330632 -0.0073853885
0.046109162 0.020544982 0.21184395 0.21428493 -0.16957079 0.011758099 -0.18036202 -0.0042868033
0.1464142 -0.049173106 0.002730018 -0.1075004 -0.03531862 -0.0971439 -0.17215589 0.07525577
-0.06219606 -0.07938485 -0.21271956 -0.0674751 0.13394986 0.06518005 -0.038672894 -0.08043958
-0.11626832 0.07240929 0.08333796 -0.09220607 0.024776205 0.09450924 -0.054471985 0.038933247
-0.09106241 -0.0053648115 -0.039732628 0.037002183 -0.05587143 -0.1338631 -0.0736207 -0.012189903
0.20796053 0.16567233 -0.15113954 -0.1580267 -0.18117048 0.052334286 0.053865362 0.098510064
0.07261666 -0.059135012 0.044875722 -0.029153554 -0.05641063 -0.007873086 -0.11151842 0.14394963
-0.060508765 0.17568514 -0.086365126 0.04753404 0.1636049 -0.110055104 0.103504114 -0.08946109
-0.042612113 0.06617545 -0.004412113 -0.19964159 -0.123941146 -0.08749118 -0.11716048 0.16646284
0.0762645 -0.027860032 -0.009544896 0.045939147 -0.15685667 -0.0065283366 0.048068855 -0.22750792
0.018215567 -0.15395878 0.008562252 0.07056971 -0.0669004 0.07066182 -0.09329921 -0.18128607
-0.06396229 0.11624082 -0.15427874 -0.02749418 0.14548177 0.15236062 -0.074045375 -0.19309671
-0.19571806 -0.06143514 -0.13157506 -0.2402226 0.047352508 -0.0368845 0.1095732 -0.21148333
0.10170209 0.085745044 -0.14144547 0.11092489 -0.05447865 -0.20260791 -0.19548516 0.008401862
0.060760822 0.021131005 -0.09615723 -0.13597539 0.022308864 -0.019602282 -0.083890125 -0.14422256
0.13673276 -0.004876684 0.09096118 -0.040886715 0.1136999 0.045566477 0.018739449 0.11412799
0.122366294 -0.15469392 -0.09366657 -0.16720755 -0.056797076 -0.11044833 0.15111288 0.05780676
-0.16082835 0.027252704 -0.21123564 -0.022346416 0.14521562 -0.06095276 0.12835278 -0.15712976
-0.041902922 0.06191863 0.102642074 -0.060761 -0.02594333 -0.06295796 -0.19021142 0.022517728
-0.02165946 0.021513226 0.020912156 0.12483285 0.036226995 -0.14509064 -0.13686167 0.057428487
-0.054155897 0.01500184 0.13226745 0.16847391 0.12535557 -0.16501732 0.0035754347 -0.13658936
-0.014234559 -0.01805937 -0.017831348 -0.15059571 -0.060771037 0.013046749 -0.19825791 0.065332055
0.10592175 -0.09771599 0.14610572 0.12863952 -0.08755175 0.1109337 -0.12219878 -0.049920227
-0.10212022 0.18178444 0.02827581 -0.11147392 0.101796165 -0.053528905 0.03234642 -0.056722436
-0.0948704 -0.009338131 -0.15708798 -0.035566133 0.037713505 -0.0020779483 0.06089948 0.089483425
-7.38972e-05 0.16582496 0.020140624 0.10706961 -0.21188273 0.018364342 -0.15217978 0.12335016
-0.08492823 0.16126277 0.030637393 -0.17417799 -0.029803649 0.10370984 0.09099636 -0.08474671
0.08410396 -0.09244004 -0.04929891 -0.02136302 0.06956938 0.050288923 0.050915323 0.18365611
-0.013872727 -0.07018227 0.113192484 0.10901627 0.05801683 -0.12791723 0.13326031 0.028906504

weight f4 [256, 512]
00000000: 5f5d f23c 6325 533d 1ebd 133d b552 3a3d
00000010: 5bb4 96bd 1027 f63d 0917 4b3d 2f85 1d3d
00000020: 9801 c1bc 75c6 1ebd 9b17 b5bc 2c8b be3c
00000030: 6995 113d c665 03be b078 4bbc fbb2 62bd
00000040: 9be1 573d 7170 27bc f64e febc 84b6 a43c
00000050: 9188 a9ba 6e78 acbd 12a4 cdbb 28f3 863d
00000060: 0332 4cbc cd4f 15bd 4dca 8c3d b8f4 e23a
00000070: 083e 663d c60a 16bd fa51 9c3c 8343 6d3d
00000080: 7e29 b5bb 8ad6 7a3b 4863 61bd 1a59 c63c
00000090: 80d6 083c 4e87 3fbd 7089 10be 59b9 32bd
000000a0: 0d10 0cbd 3f73 253d 92e5 a9bd 9a35 863c
000000b0: 2ff6 4ebd 57b5 1d3d e27d 5f3d 4a2e 453d
000000c0: dcbc 923c 5ef1 a23c 6d76 6a3b c0cb 103e
000000d0: 2a6c 5e3d b3c0 c53d 7d7f f43d b159 d0bc
000000e0: f4e7 9d3c 1403 47bd 9de0 0e3d 9653 72bc
000000f0: e75b d63c a729 c7bd db90 e83d 1753 da3d
00000100: b8b6 f5bd 2756 363e 5c68 c5ba e7cc b93d
00000110: c2b2 0ebc 1849 763d 9795 c7bd 4c1d d6bc
00000120: b94e 4c3c 8fd6 66bd 9b99 d43d a543 1f3a
00000130: 2c97 8d3d 49af 053e 5e9d 8cbd 26b1 ce3c
00000140: 03ed cdbc 8ce7 963c 536b f1bd 2618 003d
00000150: fd53 18ba 5cfd 103d 195d ea3d 42b2 713d
00000160: 7e2e 23bb 375e 843c 689c 87bd 535e c6bd
00000170: c0d4 773d eb69 8d3d 4cb7 18bc aca0 57bd
00000180: e747 2e3e d30a b7bc a75a 363e 29eb 4c3c
00000190: e746 113e f8f1 283e 5e91 66bd 266b 8cbc
000001a0: f98c 0e3c c11e dbbd be04 723d c9b9 e1bd
000001b0: a818 343d 1b99 ca3d 9e60 4ebd 7942 303b
000001c0: 11d3 eebb a510 a23d da7c 38bc d552 b63b
000001d0: fb81 a9bd 740f ae3c 1725 7dbd 016b 9cbc
000001e0: d58e 5dbd 3167 d3bb 0a9b 8dbc 63c3 f33b
000001f0: 9fd5 85bd 0ee5 8e3c 3912 8e3c f71c b0bd
00000200: 78c1 c53d 742a 003e 7e2f 8f3d 5fb7 483d
00000210: 2d4b 81bd 6a2f 373d 9064 e03c f007 b53c
00000220: 6b0b 91bc 716f 953d 4dfb 1dbe cd05 723c
00000230: c263 213d 1a10 b93d 47be b33c 95cc 35ba
00000240: ef13 bc3d 3463 ab3d c7f1 e0bc 74db 06bd
00000250: ae11 df3d 0100 bfbb 8ea6 0ebd 925f 073d
00000260: b567 ae3d 7cfc 9d3c ff14 18bd c9dd 1dbd
00000270: 70d3 5dbd 5133 2a3e 23ef f43d d2d3 023d
00000280: 01a9 08bd 6405 cabc 2b98 4e3c 81f1 c23c
00000290: 3282 9e3d 0dab 00bd 35f5 313d 3367 3dbd
000002a0: 3e2d 883b 1f1e 8fbd 9aa1 3dbb 5de1 533d
000002b0: e9ce 853d 6d98 8e3d 195a fdbd ed0e e4bd
000002c0: 35be e7bd 4bd1 583e 4a47 423d 655c a4bd
000002d0: c198 9abd 2c59 15be e130 15bd f7a5 ff3d
000002e0: ef2e 48bd 9fc7 12be 4bb6 a7bb 134f 9cbc
000002f0: b7d0 f0ba 989d c3bd 11f7 473d d298 9e3d
00000300: c865 f73c 4074 cb3a f145 033e ef04 78bd
00000310: 08eb c33d 8e98 0cbd 215d 71bc 471b abbd
00000320: 7cbc d9bc fe09 c4bc cfc5 f93c 4cb9 ad3c
00000330: 98ad bd3d c39a b6bd 7bb1 413c bdaa a83c
00000340: a1a6 c9bd c476 983c da10 493d bf12 ffbc
00000350: b344 7ebb 93a3 783c 4dc4 43bc dda6 4d3d
00000360: 1cc8 f83d 08e0 f73c 1162 b83b 54cf 973c
00000370: 45a0 133d 77fd 4bbd e2cc ad3c e755 db3d
00000380: f131 16bd 57cf e23d 2994 5bbd 877f 653c
00000390: 5530 d03d 80c6 e9bd 4b00 063d 7de8 823d
000003a0: d795 0abd acdc e2bd 5c42 373d 14d9 2a3d
000003b0: c0d9 1e3e 2b47 26bd 773a d83d 56dd 48bd
000003c0: 8722 193d 2d0f 033e bd7b 3c3d 678a bcbd
000003d0: 58bd ae3d 8f0c 243e 649e c63d 04c3 953c
000003e0: 9ada 0e3e 0799 393b c213 f43d 353f 1c3e
000003f0: 3119 353d a612 be3c 5103 353c 95f2 b23c
0.029585538 0.051549327 0.036069028 0.04548903 -0.07358619 0.12019169 0.049582515 0.038457092
-0.02356033 -0.038763482 -0.022105983 0.023259722 0.03554288 -0.12831792 -0.012418911 -0.05534647
0.05270539 -0.010219679 -0.03104351 0.020106561 -0.0012934377 -0.08421408 -0.006275662 0.06589347
-0.012463096 -0.036453057 0.06874523 0.0017315364 0.0562115 -0.036631368 0.019082058 0.057925712
-0.005528628 0.0038274848 -0.055026323 0.024212409 0.008351922 -0.046759896 -0.14114928 -0.043633793
-0.034194995 0.04039311 -0.0829574 0.016382981 -0.050527748 0.038503017 0.05456341 0.048139848
0.01791232 0.019890483 0.0035776154 0.14140224 0.054302372 0.09655895 0.11938379 -0.025433393
0.019275643 -0.04858692 0.034882177 -0.014790436 0.02616687 -0.097247414 0.11355754 0.106603794
-0.119977415 0.17806302 -0.0015061009 0.09072285 -0.008709611 0.0601283 -0.09745329 -0.026137017
0.012469941 -0.056356963 0.103808604 0.00060754485 0.06913599 0.13055147 -0.06865953 0.025230955
-0.02513743 0.018420957 -0.117880486 0.03127303 -0.0005810855 0.035397872 0.11443538 0.05900789
-0.0024899538 0.016158206 -0.06621629 -0.0968596 0.06050563 0.06904968 -0.009321045 -0.052643463
0.17019616 -0.022344029 0.17808019 0.012507238 0.14187203 0.16498554 -0.056290977 -0.017140936
0.008700603 -0.10699225 0.059086554 -0.11021764 0.043968827 0.09892484 -0.05038511 0.002689509
-0.0072883447 0.07913331 -0.011260236 0.0055640736 -0.08276745 0.021247603 -0.06180295 -0.019093992
-0.054091293 -0.0064515104 -0.017285842 0.0074390634 -0.065348856 0.017443206 0.017342674 -0.085992746
0.09656042 0.12516195 0.0699148 0.049003 -0.06313167 0.044722952 0.027391702 0.022098511
-0.01770564 0.072966464 -0.15427895 0.014771891 0.039401777 0.09036274 0.021941317 -0.0006935087
0.091834895 0.08368531 -0.027459038 -0.03292413 0.10892044 -0.005828858 -0.034826808 0.033050127
0.08515874 0.019285433 -0.0371294 -0.03854159 -0.05415672 0.16621138 0.11959674 0.03194029
-0.0333643 -0.024660774 0.012609522 0.023796799 0.077396765 -0.031413127 0.04344674 -0.046240997
0.004155784 -0.06988167 -0.0028935433 0.051728595 0.065336056 0.06962667 -0.123707004 -0.11135659
-0.11315576 0.21173589 0.047431268 -0.08025435 -0.07548667 -0.14584798 -0.036423568 0.12482827
-0.048872884 -0.14333962 -0.0051181666 -0.019080674 -0.0018372749 -0.09551543 0.048819605 0.07743992
0.0301999 0.0015522316 0.1281965 -0.06055158 0.09566313 -0.034325175 -0.014731676 -0.08354812
-0.026579134 -0.023930546 0.03048983 0.02120652 0.09261626 -0.08916237 0.0118221 0.020589227
-0.09846235 0.01861132 0.049088337 -0.031136869 -0.0038798272 0.015175718 -0.011948657 0.05020796
0.12147543 0.030258194 0.005626925 0.018531479 0.036041517 -0.04980227 0.02121586 0.10709744
-0.03666872 0.11074703 -0.053608093 0.014007456 0.101654686 -0.11414814 0.032715123 0.06392
-0.033834305 -0.11077246 0.04474102 0.041710928 0.15512753 -0.040595215 0.10558026 -0.049039207
0.037386443 0.12798758 0.046016444 -0.09206086 0.08532208 0.16020416 0.09698179 0.018281467
0.13950577 0.0028319971 0.11917831 0.15258487 0.044213478 0.023202252 0.011048154 0.021844188

bias f4 [256]
00000000: 35cb 5a3b 455e a3bc fc3c 85bc 1f41 1cbe
00000010: 1b35 ecbd 81c9 bbbc 7da1 73bd fcf0 fb3d
00000020: 3a6b 33be 14b4 abbd 23d3 9cbd 9b19 2dbd
00000030: 2240 1bbd d50b f43a 4d41 99bc 7122 e1bd
00000040: 91f7 49be 5d3d 4ebd c068 743d 7d3e 353c
00000050: af2b 18bd ddc9 c63c e2eb 07be 6191 53bd
00000060: da50 e1bd ab5a 15be d6d9 383d 444c ba39
00000070: af0f dabc 9a9e e1bd a676 b73d 5bff 4fbd
00000080: fa99 6bbd c8ee 01be e36a 9fbb 6176 8bbc
00000090: ed23 75bd efc9 bbbc d829 89bd c283 923c
000000a0: 9b95 76bd cf80 713c 34a2 293d 8e53 5bbd
000000b0: 4101 b8bc 93cd 95bd 4b91 a03d 391a dcbd
000000c0: c4eb 67bc aae9 fe3c c452 f9bd 0b9e 26be
000000d0: fa7f 5ebb 1271 b9bd cc57 813c 0b36 a23d
000000e0: 38a3 67bd 18de ddbc 075d d0bd a6f6 39bd
000000f0: 7cf1 99bd 7b4a f8bc 4eef 9d3a 64d2 5e3d
00000100: 695e dbbc f45e cbbd d10f afbd d93d 0fbd
00000110: a06a bcbd 12db d2bc 931e 093d d470 453c
00000120: bef0 6f3c 4397 a8bc e5d4 0bbe 87de 4e3d
00000130: e72f 79bc 8877 08be 7f00 01bc 86ed 293d
00000140: 2140 c9bc cb8a b5bb f44a 31bc 2857 1fbd
00000150: d957 c2bd 6759 29bd 8936 8a3d d270 e83c
00000160: dedd 19bd c5d4 0abc bdb7 c2bd 8ff3 d53c
00000170: 93c9 b43c fc38 eebb eb8c 19bd fcdb 61bc
00000180: 5a7a adbd 4a5f 6b3d ecc2 07bd e74d 63bd
00000190: 469c 63bd cd95 f0bb 259d e53c 2796 873c
000001a0: f101 cabc cd8d 8f39 ae83 9ebc d760 88bd
000001b0: 2702 b13d 9c89 a2bc 3361 d63a 632c ddbd
000001c0: 30f8 12bd 85b8 23bd 4143 373d 051d c1bd
000001d0: fb4d db3c 30e8 1fbd 11a1 fd3b 05eb b7bd
000001e0: 56fc f7bd b8ad 873d 1012 eebb 75f1 91bc
000001f0: 9e45 1e3d 8d0f 25be f331 a3bd 27dd dabd
00000200: 2603 88bd fc33 9e3b 94a1 0abd de2c 003e
00000210: 520c 943d 56bf debd d92d b6bd 2176 05bd
00000220: 845b 0e3d b7c1 a0bd be5b 90bc 0e99 59bd
00000230: c89c e7bd caf4 fabd 0ce5 08bc c65c 183d
00000240: 58d6 09bd 6190 b9bd 95d7 d6bd 7939 9d3d
00000250: 214d 47be 8692 a7bd 9b70 f1bd 7d2d dabc
00000260: 83da 983c 7d3c 8cbc 7d2c c4bd 7fee 7bbd
00000270: 277c a2bd 501a 063c ac96 75bd 0ff0 abba
00000280: 3f50 bbbb afcd eabd 615e 06be 138e 3dbe
00000290: 65af 0fbc eb65 0ebe 2203 723b 6a4b 10bc
000002a0: dddd c2bd 36b5 8cbd 40e5 393d bcd7 ebbd
000002b0: 84b6 93bd bafe be3b 648f c1bd 2073 103d
000002c0: d50c 91bc 36ad 9fbd f368 3c3a 23b6 b5bc
000002d0: f90a e63c ee2e d7bd 5e6d 55bd 6429 7cbd
000002e0: da09 883c 9115 fabd ed9a 103c cbb2 8cbd
000002f0: 026a a7bd 354a c4bd 4281 a7bd a90b 86bc
00000300: 6802 cabc b6f6 16be 4af0 6ebd 053d a0bd
00000310: c193 28bb d8e4 27bd f5b7 12bd cbc3 6dbd
00000320: 8502 68bd b07d d5bd c053 51bd b248 13bd
00000330: 4d1f 4bbe 1dd3 85bd 2418 a3bd e6fe e0bd
00000340: c5c3 9b3c 26fd 01bd 909b 85bd 4f77 77bd
00000350: 31eb 03bd e161 22bd 7b40 08be 563e bebc
00000360: 9de7 4bbd dede 303c 6ec2 febd 3aae d2bc
00000370: 13b4 36bd db10 6fbd c6f1 eabd 8fef 43bd
00000380: 8312 8b3c f0e9 41bb f540 8f3c e90b 7d3c
00000390: 9473 803c faac a5bc a645 e73c 9619 973c
000003a0: b1aa 5fbd bb5f 35bd 7191 843b a518 693d
000003b0: c955 213d 8e3d 10be 8502 8ebd 0018 f03b
000003c0: e281 86bd 0798 fabd 8ded ddbd d02c 48bd
000003d0: 60a4 94bc 749e f2bd 5751 1f3d 64b2 d1bc
000003e0: 081f 89bb ad71 393c a08e 783d 11c7 adbd
000003f0: 37c7 afbd 783f ddbd 0d28 7e3d 29d4 8dbc
0.003338528 -0.019942412 -0.016264431 -0.15259217 -0.115335666 -0.022923233 -0.05948018 0.123018235
-0.17521372 -0.083839566 -0.07657459 -0.042260747 -0.03790296 0.0018619249 -0.018707896 -0.10992897
-0.19723345 -0.05035149 0.05967021 0.011062262 -0.037151035 0.024266178 -0.13273576 -0.051652316
-0.11001749 -0.14585368 0.04512962 0.00035533507 -0.026618807 -0.11016579 0.08958177 -0.050780635
-0.05751989 -0.12688744 -0.004865037 -0.01702422 -0.059848715 -0.022923438 -0.06697434 0.017885093
-0.06020127 0.014740183 0.041414455 -0.05354648 -0.022461535 -0.07314601 0.078402124 -0.10747189
-0.014155332 0.03111728 -0.121739894 -0.16271226 -0.0033950792 -0.090547696 0.015788935 0.07920464
-0.056552142 -0.027083442 -0.101739936 -0.045401238 -0.075167626 -0.030308953 0.0012049468 0.054399863
-0.026778417 -0.0993022 -0.085479386 -0.034971092 -0.092000246 -0.025739226 0.033476423 0.012050826
0.0146448 -0.02057994 -0.13655432 0.050505187 -0.015209175 -0.13326848 -0.007873653 0.041486286
-0.024566712 -0.005540227 -0.010821093 -0.038901478 -0.09489412 -0.041345026 0.06748683 0.02837411
-0.037565105 -0.00847358 -0.095077015 0.026117114 0.022068774 -0.0072699767 -0.037487905 -0.0137853585
-0.08470602 0.05746392 -0.033144876 -0.055494215 -0.055568956 -0.0073420764 0.028029034 0.01655109
-0.024659129 0.00027380735 -0.0193499 -0.06659096 0.08642989 -0.019841008 0.0016355872 -0.10799482
-0.03588122 -0.039970893 0.044741873 -0.09429363 0.026770582 -0.03903979 0.007740148 -0.08980373
-0.12108676 0.06624931 -0.007265337 -0.017815331 0.03864061 -0.16119213 -0.079685114 -0.10686713
-0.066412255 0.0048279744 -0.0338455 0.12517115 0.072289124 -0.10876338 -0.088954635 -0.03258336
0.034755245 -0.07849448 -0.017621871 -0.05312448 -0.113092005 -0.12253721 -0.00835539 0.03719785
-0.03365168 -0.09060741 -0.10490338 0.07676978 -0.19463016 -0.08182244 -0.11789056 -0.026633019
0.018658882 -0.017118687 -0.09578798 -0.061506744 -0.079338364 0.008184984 -0.059958145 -0.0013117808
-0.005716353 -0.11465012 -0.1312194 -0.18511228 -0.008769845 -0.13906066 0.0036928137 -0.008807043
-0.09514973 -0.06870501 0.045384645 -0.115157574 -0.072125465 0.0058287056 -0.09451178 0.03526604
-0.017706314 -0.07796709 0.00071872695 -0.022181576 0.028081404 -0.10506998 -0.052106254 -0.06156291
0.01660626 -0.12211145 0.008826 -0.068700396 -0.08174516 -0.09584466 -0.08178951 -0.016362982
-0.02465935 -0.1474255 -0.058334626 -0.078241386 -0.0025722834 -0.040989727 -0.035819966 -0.05804805
-0.056643028 -0.104243636 -0.05110526 -0.035958 -0.19836159 -0.06534407 -0.07963589 -0.10986118
0.019014249 -0.03173556 -0.06523812 -0.060416516 -0.032206718 -0.039644126 -0.13305847 -0.023223083
-0.04978143 0.010795323 -0.12439428 -0.025717843 -0.044605326 -0.058365684 -0.11471896 -0.047835883
0.0169766 -0.00295889 0.017487029 0.015444734 0.015680112 -0.020224083 0.028231453 0.018444818
-0.054606143 -0.04428075 0.0040456583 0.05690827 0.03938845 -0.14085981 -0.06934074 0.00732708
-0.06567742 -0.12236028 -0.10836325 -0.04887086 -0.018144786 -0.11846629 0.03889593 -0.025597759
-0.0041846074 0.011318606 0.060682893 -0.084852345 -0.08582919 -0.10803121 0.062049914 -0.01731308

weight f4 [128, 256]
00000000: cdce 10ba c210 eabc 11fb 7cbd 1e71 4d3d
00000010: 7e43 1fbd c6d0 623d 311f bd3d 4aeb 41bd
00000020: 9f41 c73c cc70 e9bb ba54 7dbd fded 203d
00000030: 5bb6 e5bc 75e9 b33c 5ad6 2c3c d78a 833c
00000040: 950c 22bd 0d49 61bc e393 ab3d dbc5 d63d
00000050: b6d6 6bbd 611e e2bd f200 8a3c ca45 a03c
00000060: 3721 c83b a640 ee3c a2eb 193d f743 f33d
00000070: 5914 91bd 896e 213d a741 febd e58b bebd
00000080: 947b a1bd f632 d03d 111c 86bd c6b4 ee3c
00000090: 5304 6cbd 17be 23ba 7a04 a0bd 3893 a4bc
000000a0: 01e5 103c f782 47bd c5fb 85bc 3e21 8fbb
000000b0: 70ea a7bd 1598 e0bc 7cd3 5abd 1fc4 00be
000000c0: 9256 4dbd 5b44 adbd 4366 5a3d 752c d53c
000000d0: f0c9 f9bd aff2 113d 6fa9 abbc 12e8 9fbb
000000e0: d58b 33bd 1f65 44bb 070a 573c ac8d 2ebd
000000f0: 304d 21bd 26d7 c93d f59e fbbd 0eda 14bc
00000100: 5a52 d7bd e0fd 9a3d 3cc2 f8bd 44bc cebc
00000110: 5c7f 37bd c8f1 b0bd c2a0 5b3c b3b5 59bd
00000120: e681 95bd 32a6 88bc 3719 063d d784 bfbd
00000130: 8ff8 073c d24e f93c a0c7 c7bd fbdb 4d3d
00000140: 5802 96bd cd9e 8ebc 4caa cd3c b4df 3a3a
00000150: cdc9 54be a840 263d a055 893a 3e37 a63c
00000160: 5431 8cbd fe7f 16be f626 52bc 4966 8e3b
00000170: fc10 b0ba 7a3c 063d d6f4 783e c0a0 7dbd
00000180: f839 333c 0c12 87bd 3b3a b93d 61e2 d23c
00000190: 3800 b43b 4bf0 223b 5fa1 5fbd e19f 9fba
000001a0: 492a 9dbb 947f cbbd 4042 8dbd 1adb 983c
000001b0: 2c65 2cbd 16cd 11be f076 123d 4aaa 633d
000001c0: 4994 df3d 9c05 d83a 9e2a 993c 377b 143c
000001d0: bf66 c5bd 489c 63bd a0cc f8bc 3c1f fdbc
000001e0: 0fb4 73bd 845a e7bc 1a4c 5b3c 53ee c9bc
000001f0: 42f7 87bd f5ec ac3d 71be f1bd 9027 3ebe
00000200: 55be 45bd 00d3 fc3c 40ef e23c 03d1 1abe
00000210: 43ea bb3c 6db6 ee3d e0f1 07bc 9131 d33c
00000220: decd dfbd dcbc febc fcc4 67bd ef10 6cbd
00000230: f991 bbbd d7cb 97bd 16b7 783d c7ea 2e3d
00000240: 9006 58bc 7883 f5bc 2201 e4bd 871e d43d
00000250: a482 0c3c 3582 6cbc e5c2 783b ced7 abbd
00000260: 74fe c6bd b272 debb c5cd b0bd 60ad dc3d
00000270: 7a4c 14bd 123f 9d3d 8a9a ff3c 2651 4fbd
00000280: 2e47 77bd e5de 843d 5b31 b83b 4a4f 58bd
00000290: aacc a5bc 577d 5cbc 22ca 60bc 71e3 543c
000002a0: 9b22 14bd 85f9 2b3b 1697 85bc 06fc 0e3d
000002b0: 7a0d 02bc b420 503c 1e97 25bc 734f 1cbd
000002c0: 8770 37bd 15da a5bd 8d40 dfbb 7498 2fbd
000002d0: 2727 97bc d86b f7bd c8b0 94bc d2c6 6ebd
000002e0: 34d4 79bd b1e2 42bd c791 683d b2ef 633d
000002f0: 77a8 f6bc f3bb 02be 96e8 d3bc 82bc ddbd
00000300: cef1 c1bc 54d6 5e3d 6fc8 85bd a6d0 70bd
00000310: 7e31 ce3b 6dfd af3d d924 35bc 5e72 4d3d
00000320: 4931 4ebe 72fe a83d 4786 0f3d add5 eebd
00000330: f039 673c 8334 4cbd cf1f 00be eb54 d0bb
00000340: 349a 59bd 545c f6bc cd86 97bb e35f 613d
00000350: aecb 8abe 3bfa 873d 1ba1 333d fb9d f73d
00000360: 7424 143d c2ca 6c3c 9cc9 093c 7b74 13bd
00000370: 5cbc 4dbd 665e 2cbd 7524 9dbc a74a 19bd
00000380: cd02 233c 6cc2 e73c b0e4 37bc 85ad 06be
00000390: ec08 103d 69d0 f6bd efba 00bd 678a 5e3d
000003a0: b3ad 753d 9baa 353d f877 373d c67a 4b3c
000003b0: 721a 9e3c 78e1 b0bd c6f3 073d 102a 5e3c
000003c0: fa74 1fbd 4488 fc3d 12e9 053e eba1 223e
000003d0: ae4f f9bc 7954 0d3d c9b1 d03c 6e1e 5a3d
000003e0: 4b77 0abd 2050 c43d 4303 75bb 002f 94bd
000003f0: 3db9 9a3c ddbd 5e3d de60 8d3b f809 e93b
-0.000552398 -0.028572444 -0.061762873 0.050156705 -0.038882725 0.055374883 0.09234465 -0.04734353
0.024323283 -0.007124042 -0.06184838 0.039289463 -0.028041055 0.021961907 0.010549152 0.016057415
-0.03956278 -0.013750327 0.083778165 0.10486957 -0.05757781 -0.110409506 0.016846154 0.019564528
0.006107475 0.029083561 0.037578233 0.11878198 -0.07083959 0.039412055 -0.12414866 -0.093040265
-0.07884899 0.1016597 -0.06548322 0.029138934 -0.05762131 -0.0006246282 -0.07813354 -0.02008973
0.008843661 -0.048708882 -0.016355405 -0.0043679764 -0.08199012 -0.027416268 -0.053424343 -0.12574814
-0.050131388 -0.084603034 0.05332018 0.026022175 -0.1219672 0.03563183 -0.020954816 -0.00487996
-0.043834526 -0.00299675 0.013124949 -0.042615578 -0.039380252 0.098554894 -0.12286178 -0.009085191
-0.10513754 0.07567954 -0.12146422 -0.025236256 -0.044799194 -0.08639866 0.013405027 -0.053151798
-0.07300167 -0.01668081 0.03273889 -0.09351509 0.008299007 0.030433092 -0.09754872 0.050258618
-0.07324666 -0.017409706 0.025105618 0.0007128671 -0.20780106 0.040589005 0.0010477789 0.020290013
-0.06845346 -0.14697263 -0.012826672 0.0043456894 -0.0013432796 0.03277252 0.24312147 -0.06192088
0.010939114 -0.06595239 0.0904431 0.025742711 0.00549319 0.0024862464 -0.054597255 -0.0012178385
-0.0047963005 -0.09936443 -0.06897402 0.018659163 -0.042088673 -0.1423839 0.03575796 0.055582322
0.10916955 0.0016481164 0.01869708 0.00906258 -0.09638738 -0.055568963 -0.03037101 -0.030898683
-0.05949789 -0.028241403 0.013384843 -0.024649775 -0.066389576 0.084436335 -0.11803902 -0.1856978
-0.048277218 0.030862331 0.027701974 -0.15118794 0.022938853 0.11655889 -0.008297414 0.025780471
-0.10927938 -0.031095915 -0.056584343 -0.057633337 -0.091587014 -0.07411926 0.06072148 0.04270437
-0.013185158 -0.029969916 -0.111330286 0.10357385 0.008576069 -0.014435341 0.0037957963 -0.08390771
-0.09716502 -0.006788575 -0.086329974 0.10775256 -0.036205746 0.07678045 0.03120162 -0.0506145
-0.060370617 0.06487826 0.005621118 -0.05280999 -0.020239193 -0.013457618 -0.013720067 0.012993679
-0.036165815 0.0026241255 -0.016307395 0.034908317 -0.007937783 0.0127031095 -0.01010683 -0.038161706
-0.04478505 -0.080982365 -0.006813115 -0.04287 -0.018451286 -0.120811164 -0.018150702 -0.05829508
-0.06099339 -0.04757947 0.05677965 0.055648513 -0.030109627 -0.1276701 -0.025867742 -0.10826971
-0.023674872 0.054403618 -0.0653237 -0.058792733 0.006292521 0.08593259 -0.011056148 0.050157897
-0.20135988 0.082516566 0.035040166 -0.11661849 0.0141129345 -0.049854767 -0.12512134 -0.0063577793
-0.053125575 -0.030073322 -0.004624224 0.055023085 -0.2710852 0.066395245 0.043854814 0.12090679
0.036167577 0.014452638 0.008409884 -0.035999756 -0.05022846 -0.042082213 -0.019182423 -0.03742471
0.009949398 0.02829095 -0.011223957 -0.1315213 0.03516476 -0.1205147 -0.031428274 0.05433121
0.059980106 0.044352155 0.044792145 0.012419408 0.01929972 -0.08636755 0.033191465 0.013559833
-0.038929917 0.12330678 0.1307719 0.1588208 -0.030433502 0.034504388 0.0254754 0.053251676
-0.033805173 0.09585595 -0.0037385977 -0.07235527 0.018887157 0.054380286 0.004314526 0.007111784

bias f4 [128]
00000000: ed89 14bd 5aff bdbd 6cd6 863c 3832 1fbb
00000010: a1fe 41bd 2c7a 92bd 54ab b4bd 50df c03b
00000020: a85b e6bd 2237 073d a603 8dbd 1994 a0bc
00000030: 8da0 80bd 94dc cabd 5297 033d 895c 28bd
00000040: 1d4d 843d 02d2 33be 8c95 18be 4522 77bd
00000050: cdaf cf3c 2b0a c23c 3b8e e6bc aa4a a63c
00000060: 6f09 d8bd b207 dfbc f1b8 c13b b8a1 76bd
00000070: 555b e6bc 3add 77bb 0418 a1bd f50f 39be
00000080: bb8e e3bd fba9 5dbd 7749 02be 0a79 63bd
00000090: b27f 58bd 7eb4 3dbd 8ec0 c63c 64d2 a6bb
000000a0: 7ab0 da3c 94cf f9bd 7ffc 73bd 4c4d 35bd
000000b0: 0f65 0dbd b999 fbbc 4d16 ca3d b26d b6bc
000000c0: 3c7a 9a3b 636f b3bd 8ced cdbc 0cde 0abd
000000d0: db30 debc a31a 74bc 76bf 5cbd d40e 79bd
000000e0: 6be3 cfbd 329d d43b bd5b 0cbe 2501 ccbd
000000f0: 2f5d d1bc be86 96bd b15f 88bd d1ee 5d3d
00000100: 2765 91bc 952c adbd 49f4 e43c 970e d2bc
00000110: 485f 52bd cd88 8fbc 7df7 ecb9 7f72 03be
00000120: b170 86bd 087a f4bd 271b 0dbd c195 d7bd
00000130: cc38 a6bd cd27 d3bb c15c 9dbd b58f 10be
00000140: c643 063c c739 09bc e617 df3d 7823 5dbd
00000150: f7c4 f6bb bc27 74bd 1a33 9abc 3040 053b
00000160: 095d c8bd 5b9a 89bd 6bc5 783b 8f1e cfbc
00000170: 1a62 1d3d c176 f73c 2e05 e0bd 8197 163a
00000180: ef50 25bd 9257 dcbd fa65 3fbe 21a4 5abd
00000190: ff3c a8bb 0099 c03c 05c7 db3c 6dab bbbd
000001a0: db4c 3bbd 48ce 04bd 86f7 3bbc 7d35 c23c
000001b0: ddd8 e63b 24c5 16bc d6e1 f3bd a1ec 873d
000001c0: 0500 293d 2528 9ebd da30 c4bd 158b abbd
000001d0: ee8b c1bd 1bcc d2bd c0f5 99bd 5c7f 14bd
000001e0: a118 c3bd 9f84 393d 51da c5bd ad86 33bd
000001f0: 0ac4 1bbd a6bf a53a 6330 29bc c4d7 24bc
-0.03626435 -0.0927722 0.016459666 -0.0024291407 -0.047361974 -0.07152209 -0.08821741 0.005885996
-0.11247951 0.033011563 -0.068854615 -0.019601868 -0.06280623 -0.09905353 0.032126732 -0.041103873
0.06460021 -0.1756058 -0.14900798 -0.060335416 0.025352383 0.02368649 -0.028143993 0.020299274
-0.10548674 -0.02722535 0.0059119393 -0.06021282 -0.028119722 -0.003782107 -0.07865909 -0.18072493
-0.11111208 -0.054117184 -0.12723337 -0.055535354 -0.052856155 -0.04631471 0.02426174 -0.0050909985
0.026695479 -0.121977955 -0.05956697 -0.04426317 -0.034520205 -0.03071295 0.09867535 -0.022269104
0.0047142785 -0.0876148 -0.025137685 -0.033903167 -0.027122905 -0.014898929 -0.05389353 -0.060805157
-0.101507984 0.0064884657 -0.1370687 -0.09961156 -0.025557129 -0.07349919 -0.06658877 0.05418283
-0.017748429 -0.08455769 0.027948515 -0.025641723 -0.0513604 -0.017521286 -0.0004519782 -0.12836646
-0.06564463 -0.11937338 -0.034449723 -0.1052661 -0.08116302 -0.0064439536 -0.07683707 -0.1411732
0.008194869 -0.008375592 0.1089323 -0.053988904 -0.0075308043 -0.059608206 -0.018823195 0.0020332448
-0.0978337 -0.06718894 0.0037959467 -0.025283126 0.038423635 0.030207993 -0.10938488 0.0005744622
-0.040360387 -0.1075889 -0.18691245 -0.05337918 -0.0051342244 0.023510456 0.026828298 -0.09163556
-0.045727592 -0.032423288 -0.011472588 0.023707146 0.007044895 -0.009202275 -0.11908309 0.0663693
0.041259784 -0.07722501 -0.0957963 -0.08376137 -0.094505176 -0.10292836 -0.07517576 -0.036254272
-0.09526182 0.045292493 -0.09660781 -0.04382961 -0.038028754 0.0012645617 -0.010326478 -0.010061208

weight f4 [12, 128]
00000000: 1240 733d 9f95 03bd 4330 743d 14bc 8a3c
00000010: cf26 9c3d e185 f4bd f691 d8bd d979 5bbd
00000020: 90dd 1c3d af54 663d 1695 113d 17b2 2b3d
00000030: 7841 d7bd 0e46 9f3d e291 3a3e 7005 483d
00000040: fa58 973d 5691 f6bd c0b0 8c3d 8f4a 8d3d
00000050: cc98 f5bc 0f94 093c 5f46 98bd 6afc 4c3c
00000060: 586f aabc 5fc6 1bbd 5dc9 073d 51c5 8bbc
00000070: 52f1 aebd 4d13 d73d 50a6 153d 4b96 793d
00000080: 9820 25bd 57b1 533c 0bbb adbd 261a 343e
00000090: 8d03 513d 485e f3bc 7e4c 8f3d e0d7 af3c
000000a0: 3456 4abd c945 a43d b66f 8e3d 38bf 02be
000000b0: ab01 863c 29bc 33bd 90e8 45be da6a 9f3d
000000c0: dd3a 993d 1e0a 683c af53 81bc 77b0 e4bc
000000d0: 962a 933b d54e 5e3d a882 23bd b141 b6bd
000000e0: 86c0 d6bd 83ae f33c 9266 243e 9c3b 54bd
000000f0: 18fc 533e 438b 96bd 26d6 debd 8ec1 22bd
00000100: 7315 e2bb d2e0 cf3d eb47 173d fa50 78bd
00000110: 8b57 07bd 8678 1a3d 7396 06bd eb4c 22bd
00000120: 7002 cc3c 7ea0 cebd 6279 17bd 3546 b2bd
00000130: 8800 913d 080f 8ebd dbf6 a23c 75aa 8ebd
00000140: bf65 91bc bd0f 723b 82e7 82bc 5c95 70bd
00000150: 98a9 b6bc 06d8 5a3e 1bf3 c0bc d365 7abc
00000160: 3d77 99bd b662 533d af4b 0a3e cb3d 92bc
00000170: c9e5 de3d 5139 c4bc 1f0d 953d 0faa 41bd
00000180: 0afb 3bbd 655c 57bd 56ba d8ba 0320 51bd
00000190: e9ae 573d 21a4 1e3d 8200 15bd ec45 a2bc
000001a0: 81f8 933d 75b9 4c3d 7693 cc3c d7c3 473d
000001b0: 74ea 77bd e810 083c b98f 013a 1b7c 49be
000001c0: 137c 743d 6d8c ee3c 52c0 0dbd 655d 89bc
000001d0: dbef 5bbd 0cbb bf3b 92cb 1cbc 20ce afbc
000001e0: 6676 1e3c 0acf 59bd 487d 48bd f2c1 1bbd
000001f0: d6ae b8bd 6d9a 30bd 40a3 c3bd 9590 473d
00000200: e304 62bc 4b89 b7bc 49b8 8a3c c38d 853d
00000210: 1b4b 9f3a 450e 923d f938 25bd 8d53 2dbd
00000220: 6b2f 49bd 3835 243c bdb6 573e 790d 0dbb
00000230: f898 aebc b870 f0bd cff9 e3bd 33f6 08be
00000240: aa63 6f3d 035e 97bd 7eb8 4bbd 8232 a1bd
00000250: 25f2 e3bc 57a3 713d c929 bebd 0803 90bd
00000260: f0ba 093d c9fa ccbc a721 d33c c4c3 eabd
00000270: 7e81 3a3b d831 dabd f5e3 4abd df82 403b
00000280: 261f 8b3b ec47 293c ee43 fe3d 3ad3 c5bc
00000290: 5f67 a7bb 2de9 d73d 3c86 ae3d 4126 c8bd
000002a0: c865 1d3e 4461 14bd 0d70 433d 4ff2 563d
000002b0: 16f3 26bd 5a58 2a3d 4fbc e6bd f7fb 48bd
000002c0: 6590 90bb f295 953d 9fdb 33bd e99c 6abd
000002d0: 6eab fb3c 4e6a 003e 7c07 8b3d fc69 443d
000002e0: 71c1 af3d 98aa 98bd b783 b5bc 2d5f 3cbd
000002f0: c305 29be 4eb7 b6bd db87 59be d7db 7a3d
00000300: c680 ecbc 8e85 a33b 7a2c 0fbd baba 8bbc
00000310: 0382 88bd d423 ac3c 6034 cebd 69a1 3f3d
00000320: c956 53bc e4ec 8cbd 888b e23d 4e69 893d
00000330: e9c8 3bbd 22ce db3a c72b ce3b 9b87 bcbd
00000340: e237 7f3c 4ff3 dfbc 854b 0e3e fcb3 fabc
00000350: e067 63bd 4d35 be3d d15f d23d cba7 c7bd
00000360: 11ed 92bc 843b 0d3d beda a5bc e1dc dc3d
00000370: 8bf8 953d e401 5fbb 305c 31bd cfd5 fabb
00000380: f614 abbd 5dd6 81bd b368 cfbc 657d e63d
00000390: c384 223d ca0d 0fbd a1d5 b83d a8ef 80bb
000003a0: adaa 73bd 3346 403d 7e3f 5fbc 4a88 60bd
000003b0: f3d5 8bbc 06bf 223d 4855 06bc 56ec e33c
000003c0: e7b7 ebbc 22e5 343d a063 a4bc 0e66 a4bc
000003d0: a6f7 3b3d 243c 5fbd 7fd6 b9bd f33c 8c3c
000003e0: ac33 25bd d2b7 a03c 7fec a03d 7bb7 d73b
000003f0: ab36 0d3e e855 80bc c39a fabc d45e 583d
0.059387274 -0.03212511 0.05961634 0.016935386 0.0762459 -0.11939598 -0.10574715 -0.053583
0.038297236 0.056233104 0.03554257 0.041917887 -0.10510534 0.07777034 0.18219712 0.04883331
0.07390018 -0.120394394 0.0686965 0.068989865 -0.029980086 0.008397116 -0.07435297 0.012511352
-0.020805046 -0.03803098 0.03315102 -0.017061861 -0.08542122 0.10501728 0.03653556 0.060934346
-0.040314287 0.012920699 -0.08482941 0.175881 0.051028777 -0.029708043 0.069970116 0.021465242
-0.049398616 0.08021123 0.06954901 -0.12768257 0.016358217 -0.043880615 -0.19326997 0.07784052
0.074819304 0.014162568 -0.015786974 -0.027916176 0.0044911606 0.0542744 -0.039919525 -0.088992484
-0.1048594 0.0297463 0.16054752 -0.05181466 0.20701635 -0.07350781 -0.10880689 -0.03973537
-0.0068995296 0.10150303 0.03693382 -0.0606241 -0.03304247 0.037712596 -0.032858323 -0.039624136
0.024903506 -0.10089205 -0.036980994 -0.08704797 0.070801795 -0.06936461 0.0198931 -0.06966106
-0.017748712 0.003693565 -0.015979532 -0.05873619 -0.022297665 0.21371469 -0.023553422 -0.015283066
-0.07493446 0.05160781 0.13505433 -0.01785173 0.10883672 -0.023953112 0.07277893 -0.04728132
-0.045893706 -0.05257835 -0.0016535025 -0.05105592 0.05265704 0.038730744 -0.036377437 -0.019808732
0.07225133 0.049981553 0.024972659 0.04877075 -0.060526326 0.008304812 0.0004942376 -0.19676249
0.05968864 0.029119695 -0.03460724 -0.016768167 -0.05369554 0.005851155 -0.009570019 -0.021460593
0.009671783 -0.053175963 -0.048947603 -0.038026758 -0.09017722 -0.043116022 -0.09552622 0.04872187
-0.01379511 -0.022404334 0.016933577 0.065211795 0.001215312 0.07131628 -0.040337536 -0.04231601
-0.049117487 0.010022454 0.21065803 -0.0021522923 -0.021313176 -0.117402494 -0.111316316 -0.13375168
0.058444656 -0.07390978 -0.049736492 -0.07870962 -0.027825424 0.058993664 -0.09285314 -0.07031828
0.033625543 -0.025021927 0.025772883 -0.114631206 0.002845853 -0.10654038 -0.049533803 0.002937488
0.0042456565 0.010332089 0.124153 -0.024148572 -0.0051087583 0.105425216 0.08521697 -0.09772921
0.15370858 -0.036225572 0.04771428 0.052477177 -0.04075917 0.041588165 -0.11266386 -0.049068417
-0.0044117444 0.073039904 -0.04391062 -0.057278547 0.030721392 0.12540552 0.06788537 0.047952637
0.08581818 -0.07454413 -0.022157533 -0.045989204 -0.16506104 -0.08921681 -0.21243231 0.061244812
-0.028869998 0.004990286 -0.034954526 -0.017056812 -0.06665423 0.021013178 -0.100685835 0.046784792
-0.012899109 -0.06881121 0.1106177 0.067095384 -0.0458459 0.0016769806 0.0062918398 -0.09205552
0.015577288 -0.027337698 0.13895996 -0.030603401 -0.055518985 0.0928751 0.10272182 -0.09748801
-0.017935308 0.034480587 -0.020245906 0.10784317 0.073227964 -0.0034028227 -0.043300807 -0.0076548825
-0.08353607 -0.06339715 -0.02531848 0.11254386 0.039677393 -0.03492526 0.090251215 -0.0039348193
-0.05948894 0.046941947 -0.013625978 -0.054817475 -0.017069792 0.039732955 -0.008199044 0.027822655
-0.028774215 0.04416383 -0.020067036 -0.020068195 0.045890473 -0.054500714 -0.09074115 0.017118907
-0.04033248 0.019618902 0.07857608 0.006583152 0.13790385 -0.015665963 -0.030591374 0.05282481

bias f4 [12]
00000000: e52d f93d dc53 bf3d 6f79 e0bc a2b7 2ebe
00000010: 3295 353e 0d4c 30bd 898d d03d e1d9 1abd
00000020: 56d3 503c 6439 9ebd bdfa a6bd 0054 3abd
0.12166957 0.09342167 -0.027401654 -0.17062238 0.17732695 -0.043041278 0.10183246 -0.03780544
0.012745699 -0.0772579 -0.08153293 -0.045490265
